6gestures_model.tflite (tflite, 3524 bytes, 3 tensors)

dense_2/bias f4 [10]
000000 77 df c6 bc 8a c7 7a bc 96 9f d8 bc a2 07 e5 bc
       -0.024276478 -0.015306363 -0.026443284 -0.027957741
000010 c9 7e dd bc f8 6f a9 bc c1 4a 0d bd f8 13 0a bc
       -0.027037995 -0.020683274 -0.03449512 -0.0084276125
000020 c6 28 ae bc b1 2f 69 bd
       -0.021259677 -0.056930248

sequential/dense_1/MatMul f4 [15, 20]
000000 da 9a 29 3e ad 8c b0 be c4 7d fb bd 55 ce 91 be
       0.16562977 -0.34482327 -0.12279847 -0.2847773
000010 80 fa ce 3c 59 cb 36 be c0 32 c7 bc 72 7a 03 be
       0.025265932 -0.17851008 -0.024316192 -0.12839678
000020 fa 70 8a be fe 0a 58 3e 4c 05 f5 bd a5 2b 8f 3e
       -0.2703932 0.21097943 -0.11963901 0.27962986
000030 90 61 07 3d f0 bb 81 bc 7b 72 ca be c0 70 fe bb
       0.033052027 -0.015836686 -0.39540467 -0.0077649057
000040 e0 ba a5 3d 1c df d8 3d 12 0e 06 3e 29 75 ca be
       0.08092284 0.1058943 0.13091305 -0.3954251
000050 62 ff 4d 3e 00 64 84 3c 8e 2c 08 3e c9 e6 95 be
       0.20116952 0.016160965 0.13298246 -0.29277638
000060 00 10 a1 38 e4 1e 95 3d dd c0 c3 be a4 ba fd bd
       7.6800585e-05 0.072812825 -0.3823308 -0.123891145
000070 48 71 02 be b1 df a9 3e a0 73 5c 3c 7c a9 a0 3d
       -0.12738526 0.33178475 0.0134553015 0.078448266
000080 9d c8 d3 3e da 1f 1a be d0 73 49 3d fd 34 9b 3e
       0.41363993 -0.15051213 0.049182713 0.30313864
000090 38 5e 0e bd fd 37 aa 3e bc 2a aa 3d 69 03 93 3e
       -0.034757823 0.3324584 0.08308932 0.2871354
0000a0 13 19 af 3e 00 45 0a 3c 40 4e a7 be 10 68 b2 bd
       0.34198818 0.008439302 -0.32676888 -0.087112546
0000b0 62 53 77 3e bc 44 fe 3d e6 80 55 3e be 33 5b 3e
       0.24152902 0.12415454 0.20849952 0.21406457
0000c0 ed d4 4d be c4 72 7e be c0 cf 17 3c 30 36 1d 3d
       -0.20100756 -0.24848467 0.00926584 0.038381755
0000d0 32 21 0c be 09 fd 4d be 41 57 59 be 92 49 31 3e
       -0.13684538 -0.20116057 -0.21224691 0.17313221
0000e0 85 18 d1 be 1d 2b 48 be 5d 11 b8 3e f4 86 96 bd
       -0.4083902 -0.19547696 0.35950747 -0.07349959
0000f0 40 4c 66 bc 6e d4 1a be e4 80 42 be c0 32 51 bc
       -0.014056265 -0.15120098 -0.1899448 -0.012768447
000100 15 3c c7 3e 60 1b 9d bc 36 8d 91 be 8e 4a 69 3e
       0.38913026 -0.019178092 -0.28428048 0.22782347
000110 61 f1 a0 be d9 56 a1 3e 8c 2c fc 3d bc a3 85 be
       -0.31434157 0.31511572 0.12313184 -0.26101482
000120 aa dc 72 3e 58 12 42 bd 60 5e 28 bc 80 1e 3a bd
       0.23716989 -0.047380775 -0.010276407 -0.045439243
000130 fa ea 17 be 68 81 23 bd 53 33 60 be 2a 60 49 3e
       -0.1483573 -0.039918333 -0.21894579 0.1966559
000140 17 4e c2 3e 13 2d b3 3e c2 47 5b 3e 0c d5 ee 3d
       0.37950203 0.34995326 0.21414092 0.11661729
000150 c6 45 7b be 89 c4 2c be 43 88 6f be 00 ac 17 bd
       -0.24538335 -0.16871847 -0.23391823 -0.037029266
000160 ef 19 ad be 01 b0 a1 be ae 06 05 3e a0 82 20 bd
       -0.33808848 -0.31579593 0.1299083 -0.039187074
000170 2d 03 87 3e 46 cd 38 be 00 cc 2a 3d 92 0a 52 3e
       0.2636961 -0.18047056 0.041698456 0.20511845
000180 a8 a4 b5 be 6f 18 bd be 1c a5 f3 bd ec 36 b5 be
       -0.35477185 -0.36932704 -0.118967265 -0.35393465
000190 9a 2f 41 3e 2c dc eb 3d b4 f9 d3 3d bd c1 87 be
       0.18865815 0.11516604 0.103503615 -0.26514998
0001a0 00 88 db 3a d8 04 ad 3d 72 6d 73 3e 89 99 7f be
       0.0016748905 0.084481895 0.23772219 -0.24960913
0001b0 e0 61 cb bc 33 a5 bc 3e f0 12 3e 3d 53 f2 bc 3e
       -0.024826944 0.36844787 0.04640478 0.3690363
0001c0 6f 4c a4 be ca f8 68 be 3a ec 6f 3e fa b0 8b be
       -0.32089564 -0.22751155 0.23429957 -0.2728346
0001d0 a4 9c 71 be 53 a6 85 3e 74 3f f6 3d 6a 30 0d 3e
       -0.2359491 0.26103458 0.120238215 0.13788
0001e0 c2 97 37 3e 1f 2c ad 3e 5c 01 26 be 01 ca 6d be
       0.17928985 0.33822724 -0.16211456 -0.2322159
0001f0 c8 d8 74 3d 8c ec 82 be 48 1a 44 bd 35 9b a3 3e
       0.05977705 -0.25571096 -0.047876626 0.3195435
000200 68 0e 04 3d 6b 58 c4 3e df 88 a9 3e d6 32 72 3e
       0.0322403 0.38348708 0.33112237 0.23652205
000210 11 8d b9 be e6 66 33 3e 80 6d 53 be f6 98 12 3e
       -0.36240438 0.17519721 -0.2064724 0.14316162
000220 a9 69 a2 3e bd 89 a9 be 52 9d 49 3e 2a 03 45 3e
       0.31721237 -0.33112898 0.19688919 0.19239488
000230 f2 4b 39 be 1e f2 71 3e c0 e7 76 3d 7e 7e 0c 3e
       -0.18095377 0.23627517 0.060279608 0.13720128
000240 f0 77 4e 3d 37 0a b4 3e 5f 07 8c 3e 22 89 13 3e
       0.05040735 0.35164043 0.27349374 0.14407781
000250 10 ae 55 bd 00 34 7f ba 3c 1e d7 3d 7c c5 ba 3d
       -0.052167952 -0.00097352266 0.105038136 0.091196984
000260 2a e3 49 3e 43 bb ce 3e 20 3a 04 be f4 7c 6f be
       0.19715562 0.40377244 -0.12912798 -0.2338751
000270 b0 e5 a8 3c e7 d0 9b 3e 16 15 75 3e d0 48 ad 3c
       0.020617336 0.30432817 0.23933825 0.021152884
000280 10 98 43 bd f2 0d 7e 3e 0f 18 d2 3e 4b 24 b6 3e
       -0.04775244 0.24810007 0.4103398 0.35574564
000290 4e 90 64 3e a3 b7 b5 be 74 ed ba be da 3b 1e 3e
       0.22320673 -0.35491666 -0.36509287 0.15452519
0002a0 9e 02 11 3e 1b 6c 82 3e b9 39 a4 be 32 7a 51 be
       0.14161155 0.25473103 -0.3207529 -0.2045677
0002b0 37 0c b8 3e 14 e1 c6 bd 00 3d 92 be 58 a8 4c 3d
       0.3594682 -0.09710899 -0.28562164 0.049965233
0002c0 64 8d 9a be d1 df 82 3e 32 a8 0b 3e 36 65 c4 be
       -0.30185997 0.25561383 0.1363838 -0.38358468
0002d0 20 a5 ad bd a6 76 68 3e d0 94 a1 bc c2 1e 46 3e
       -0.08478761 0.22701511 -0.01972428 0.1934767
0002e0 34 af c3 3d b3 f6 cc 3e 52 a4 ca be 60 de 2d bd
       0.09554902 0.40031967 -0.3957849 -0.0424484
0002f0 f9 8b d3 be 02 f7 6e 3e a1 9b 63 be ed 9b 89 3e
       -0.41317728 0.23336414 -0.22227336 0.26876774
000300 00 7c 79 bb b5 b5 9e 3e 16 a1 bc be e6 27 7e 3e
       -0.0038068295 0.30998006 -0.3684165 0.24819908
000310 27 20 b8 be 18 07 40 bd fb 99 72 be 26 fa 0a 3e
       -0.3596203 -0.046881765 -0.23691551 0.13571987
000320 4a ea 35 3e 6e 75 27 be 46 39 b2 be 5f c9 87 be
       0.17765155 -0.1635339 -0.3480932 -0.2652082
000330 2c 6c 8d bd 60 50 7e 3d f2 39 09 3e b2 85 18 3e
       -0.06905398 0.06208837 0.1340101 0.1489475
000340 dd 13 c4 3e fe cd 12 be 3c 1c 00 be 80 4c f5 3c
       0.38296404 -0.14336392 -0.1251077 0.029943705
000350 5c d6 ea bd 4e f9 1a be 7e b7 b2 be 6e 7e b4 be
       -0.11466667 -0.15134165 -0.34905618 -0.35252708
000360 8c 02 21 be 9f dd a9 be f1 1d 81 3e be 77 0d 3e
       -0.15723628 -0.33176896 0.25218156 0.1381521
000370 a4 7f d7 bd ac 25 a7 3d b0 5b 02 3d 88 9a 7c bd
       -0.105223924 0.08161482 0.03182572 -0.06167081
000380 28 70 4d be c9 75 a8 3e 06 a9 75 3e 02 9e 98 be
       -0.20062315 0.32902363 0.23990259 -0.2980805
000390 84 db e5 3d 81 b5 91 be 84 34 ed bd 3c ac 9a 3d
       0.1122351 -0.2845879 -0.11582282 0.07552382
0003a0 9e d6 2a 3e 86 35 a5 be 71 2f 8e be c2 40 ac be
       0.16683432 -0.32267398 -0.2777057 -0.33643156
0003b0 ec 3b 26 be 28 6b ab bd fe b3 0c 3e f9 a9 95 3e
       -0.16233796 -0.08370048 0.13740537 0.2923124
0003c0 9f 6c 9f 3e e1 3c 9b 3e e8 b6 76 be a4 08 ef bd
       0.3113756 0.30319884 -0.2409321 -0.1167157
0003d0 db 85 cd be 10 cc 9e be 39 ec 9f 3e a0 63 f4 3c
       -0.40141186 -0.31015062 0.3123491 0.029832661
0003e0 9a c5 0c 3e d0 46 9d bc 88 4e 99 bd 40 5b dc 3b
       0.13747254 -0.019198805 -0.07485682 0.006724745
0003f0 62 32 22 3e 5a 23 04 be 66 02 78 be 9a 62 5a 3e
       0.15839532 -0.1290411 -0.24219665 0.21326676

sequential/dense_2/MatMul f4 [10, 15]
000000 9e bf 3c 3e bf 75 df 3e 0e a9 77 3e e5 31 ca 3e
       0.18432471 0.4364452 0.24185583 0.39491192
000010 c3 06 e0 3e 50 c1 d7 3c 3c 12 98 3d 6f 71 9e 3e
       0.4375516 0.026337296 0.07425353 0.30945918
000020 6f 18 e3 3e f6 84 28 be cf a4 96 3e 43 ce 98 3e
       0.4435458 -0.1645697 0.29422614 0.29844865
000030 86 39 82 be c2 7a 32 3e f7 dd 84 3e 16 ab 1b 3e
       -0.25434512 0.17429641 0.25950596 0.15201983
000040 e5 33 89 3e 94 af 9d 3d 5a 58 01 3e 02 a3 7e 3e
       0.26797405 0.076995045 0.1263136 0.2486687
000050 a2 4b 4c 3e c1 b3 fa be ac 40 67 be a7 c8 d3 3e
       0.19950727 -0.48965266 -0.22583264 0.41364023
000060 20 3e 35 bd 42 ca 2c 3e e4 b7 f2 3d 4c aa a0 bd
       -0.0442487 0.1687403 0.118514806 -0.078449816
000070 fc b5 1c be e9 59 c8 be ae e4 6d 3e b8 5d de bd
       -0.15303797 -0.39131096 0.23231766 -0.10857719
000080 26 dd e6 be 64 a1 fa 3d 99 f9 a5 3e 74 2c 12 be
       -0.45090598 0.12237814 0.3241699 -0.1427477
000090 51 a5 8f be 8c 4c f2 bd 80 bb 79 bb ba 85 26 3e
       -0.28055814 -0.118310064 -0.0038106143 0.1626195
0000a0 80 40 22 bc 48 5f bc bd 2c 24 ea bd cf 73 a4 be
       -0.009903073 -0.09197861 -0.114326805 -0.32119605
0000b0 66 bd 6e 3e 37 bb 86 3e 03 2b 8f 3e b8 a4 06 3d
       0.23314437 0.2631471 0.27962503 0.03287193
0000c0 fa e0 6c be a2 57 54 3e 29 80 ab 3e b4 5e 64 be
       -0.23132697 0.20736554 0.33496216 -0.22301751
0000d0 c5 2a a6 3e 76 cf 45 be c0 ac f6 3b 36 3d 16 be
       0.32454506 -0.19317421 0.0075279176 -0.14671788
0000e0 5d c0 8e 3e 96 00 72 3e 98 e4 15 3d 47 ce c9 3e
       0.27881137 0.23633036 0.036594957 0.3941519
0000f0 ba fa 6b be c4 0f 98 3d 2a c3 ad be 91 44 cc 3e
       -0.23044863 0.07424882 -0.3393796 0.39896062
000100 ae d2 12 3e a2 88 18 3e bf 3e 9e 3e 28 ac ca be
       0.1433818 0.14895871 0.30907246 -0.3958447
000110 88 71 73 3d b3 30 dc be 2e bc 3b 3e a0 62 8e be
       0.059434444 -0.43005905 0.18333504 -0.2780962
000120 51 51 b8 3e b0 22 6f be da 4a 11 3e ab a1 a8 be
       0.3599954 -0.23353076 0.1418871 -0.32935843
000130 7a 60 06 be 26 b7 03 3e 1e dc 39 3e 98 18 1d bd
       -0.1312274 0.12862834 0.18150374 -0.038353533
000140 a2 75 71 3e f8 30 43 3d 54 5e a1 3d a7 fc ec 3e
       0.2358003 0.047654122 0.0787932 0.46286508
000150 84 48 c7 be 16 ce 03 be 90 28 be be 4a f4 59 3e
       -0.38922513 -0.12871584 -0.37140322 0.21284595
000160 f0 d4 36 be dc 0d 90 3d 26 77 8a be a7 39 93 3e
       -0.17854667 0.070338935 -0.27044028 0.28754923
000170 7b dc a5 be b4 4c b0 bd 83 93 df be f8 3b 4d 3d
       -0.32394776 -0.0860838 -0.4366723 0.05010602
000180 8c f7 8c 3d 28 e4 19 be 4f e2 bf 3e d4 3f fe 3d
       0.06883153 -0.15028441 0.37477347 0.12414518
000190 7b 33 cd be 1a e3 3b be 72 30 96 be 4f 1b c2 3e
       -0.4007834 -0.18348351 -0.29333836 0.3791146
0001a0 80 a3 86 bc 88 20 0d be c4 7c f6 3d 4f cb 8d be
       -0.016435385 -0.13781941 0.12035516 -0.27694175
0001b0 7a ee 37 3e 8d 34 ee 3e af e0 bd be b6 e6 05 be
       0.17962065 0.46524468 -0.37085482 -0.1307629
0001c0 3e 55 72 3e 64 63 be 3d 11 59 90 3e 4f 1f a0 3e
       0.2366533 0.09296301 0.28192952 0.31273887
0001d0 d0 55 9b bd cb c9 d0 be ea 76 12 3e 18 ee 42 bd
       -0.07584727 -0.40778956 0.14303175 -0.047590345
0001e0 d7 4c af 3e 81 48 a1 3e 63 23 c4 3e 62 91 4b be
       0.34238312 0.3150063 0.38308248 -0.19879678
0001f0 44 2f 37 be b6 4d 07 3e 64 21 d1 bd e1 2d ef 3e
       -0.17889124 0.13213238 -0.10211447 0.4671469
000200 8e ed 26 be a0 1f 7c bc 37 84 f9 be 9e ff 00 3e
       -0.16301557 -0.015388399 -0.48733684 0.1259751
000210 9e 47 70 be 59 2a c4 3e be 95 1c 3e 1f da d9 3e
       -0.2346482 0.3831356 0.15291497 0.42549226
000220 f0 dd 35 bd ad 8d e5 3e 32 d5 54 3e 00 0b 0d 3c
       -0.04440111 0.44834653 0.20784453 0.00860858
000230 cc 3b dc be 7a cd 70 be 6a 9e 53 be d4 24 04 be
       -0.4301437 -0.23515883 -0.20665899 -0.12904674
000240 2a 68 6f be a9 01 d9 be b9 ca 98 3e 54 45 f4 be
       -0.23379579 -0.4238408 0.29842165 -0.47709143
000250 e6 98 44 3e 4c 5d ca be
       0.19198951 -0.39524305
