allgestures_model.tflite (tflite, 51404 bytes, 6 tensors)

dense_2/bias f4 [10]
000000 6b 7c af c0 db 4f bf c0 90 a5 92 c0 93 e7 90 c0
       -5.4839377 -5.978498 -4.5827103 -4.5282683
000010 e6 51 96 c0 ba 8f f0 c0 ad f1 9c c0 44 b9 90 c0
       -4.6974974 -7.5175447 -4.9045014 -4.5226154
000020 2e ae 98 c0 71 0e ad c0
       -4.771262 -5.408013

dense_1/bias f4 [15]
000000 00 00 00 00 14 37 4f bb 23 85 f4 bb 55 b1 48 ba
       0.0 -0.0031618522 -0.00746216 -0.0007655819
000010 bf a5 e6 be b0 ee 13 bc 48 4b 93 bb 8c c1 8b be
       -0.4504833 -0.0090290755 -0.004495058 -0.27296102
000020 bd 09 01 c0 98 91 a0 b9 dc 77 7a ba f0 36 f9 ba
       -2.0162194 -0.00030626054 -0.00095546036 -0.0019013565
000030 9b ce b7 ba 07 1e 25 bc da 9e 39 bc
       -0.0014023365 -0.01007796 -0.011329377

dense/bias f4 [20]
000000 00 00 00 00 00 00 00 00 ce 56 ca bb 30 ff 3a bd
       0.0 0.0 -0.0061748987 -0.045653522
000010 1e 31 4f bb 0a 38 4f bb 9b c0 90 bb 1d d3 89 ba
       -0.003161497 -0.0031619095 -0.0044174916 -0.0010515187
000020 00 00 00 00 00 00 00 00 00 00 00 00 00 00 00 00
       0.0 0.0 0.0 0.0
000030 00 00 00 00 00 00 00 00 17 2b 4f bb 16 be 53 bb
       0.0 0.0 -0.0031611377 -0.0032309345
000040 00 00 00 00 00 00 00 00 00 00 00 00 29 34 4f bb
       0.0 0.0 0.0 -0.0031616783

sequential/dense/MatMul f4 [20, 595]
000000 c0 60 33 bb 68 43 8b 3c b8 1e 64 3c 34 6d ba 3d
       -0.00273709 0.016999915 0.01392334 0.0910286
000010 d0 80 cb bc 58 9c d4 3c e2 7f bf 3d 3f c3 b3 bd
       -0.024841696 0.025953457 0.093505636 -0.087774746
000020 88 35 c0 3c 48 27 6a 3d b8 df 0f 3d 58 94 4f 3d
       0.023463026 0.057166368 0.035125464 0.05067858
000030 90 a0 e7 bc 00 60 b8 3a 0c a6 a5 3c 76 01 1c bd
       -0.028274804 0.0014066696 0.020220779 -0.03808733
000040 20 a7 22 3b a0 44 9d bb dd ac 46 bd f0 96 47 3d
       0.0024818853 -0.0047994405 -0.0485047 0.04872793
000050 e8 0e ae 3c 91 c3 b1 bd d8 7e 33 3c f1 a5 7c bd
       0.021247342 -0.086798795 0.010955535 -0.06168169
000060 30 7a 2d 3c 28 69 71 bc 69 fa 36 bd 26 0f a9 bd
       0.010588214 -0.014734544 -0.044672403 -0.082548425
000070 c8 21 3e 3d 34 09 af 3d 32 e8 b4 bd 66 3b a2 3d
       0.046418935 0.08546677 -0.0883335 0.079214856
000080 d8 9c ff bc 08 dd 4e 3c 10 a7 c1 bd c8 f9 6b 3d
       -0.031202719 0.01262594 -0.09455693 0.057611257
000090 dc a2 64 3d a7 cf bb bd c7 14 2e bd e0 e4 65 bb
       0.055819377 -0.09170466 -0.042500284 -0.0035079047
0000a0 bc cb 67 3d 80 4d 9a 3d 68 3a 6b bc c0 45 60 3c
       0.05659078 0.07534313 -0.014357187 0.013688505
0000b0 30 2a 83 3d 18 06 c2 3d c8 1a b0 bd 60 db b1 bb
       0.06404531 0.094738185 -0.08598858 -0.005427763
0000c0 9a 36 5a bd e2 7f c7 3d 26 4a b4 bd 3b 85 4b bd
       -0.05327473 0.097411886 -0.08803205 -0.049687605
0000d0 cc bc 27 3d 1b ff ba bd 3c 22 c1 3c d0 66 45 bc
       0.040951535 -0.09130689 0.023575895 -0.012048438
0000e0 70 d9 be 3d 70 1a dd 3c 5b 30 aa bd 38 09 65 bc
       0.09318817 0.026990145 -0.08310004 -0.013979249
0000f0 f0 e4 64 3d bc 1e 24 3d e4 56 bc bc 5a eb c8 3d
       0.055882394 0.040068373 -0.022990651 0.09810515
000100 b0 ee cd 3b d0 57 13 bc 30 fb 38 3d f0 c9 7b 3c
       0.0062845573 -0.008993104 0.045161426 0.01536797
000110 68 6e 85 bd 18 1e ec 3c ea f7 93 3d ac db b9 bc
       -0.06515199 0.028822944 0.0722502 -0.022687756
000120 24 29 05 bd 80 b4 58 3d 74 ae 61 3d 00 3a a3 3c
       -0.032509938 0.052906513 0.055098012 0.019925117
000130 08 40 24 3c f1 38 1d bd aa ab 86 bd 28 49 9d bd
       0.010025032 -0.03838438 -0.06575711 -0.07679969
000140 40 94 11 3b 90 17 50 3d f8 02 da 3c 62 8f 58 bd
       0.0022213608 0.05080372 0.026612744 -0.052871116
000150 24 9e c1 3c 4d c5 c3 bd cf c2 18 bd 69 f1 b8 bd
       0.023634978 -0.095591165 -0.03729516 -0.0903042
000160 c0 e4 b9 ba 6a a8 a3 bd 40 d0 38 3b ec a6 a2 bc
       -0.0014182553 -0.07991107 0.0028200299 -0.019854985
000170 d4 ca ac 3d 80 30 db 3a 50 29 00 bd f1 f5 6f bd
       0.08437124 0.0016722828 -0.0312894 -0.058584157
000180 98 5c 8e 3d c0 27 e0 3b 80 c5 2f 3c 6f f8 5c bd
       0.069512546 0.006840676 0.01072824 -0.053947862
000190 1e 56 a0 bd 60 2c 50 bb 4c 5d c7 bd 90 cf b0 3d
       -0.078289255 -0.003176473 -0.09734592 0.086333394
0001a0 e4 ee 99 bd f2 a6 89 bd 80 90 68 bc f0 58 15 bd
       -0.07516268 -0.067212954 -0.014194608 -0.03646177
0001b0 48 60 ed 3c b1 2b b1 bd 80 a1 b2 ba a0 b1 86 bd
       0.028976575 -0.086509116 -0.0013628453 -0.06576848
0001c0 33 0c a9 bd 78 69 b5 3c c4 7d 0a bd 9c 03 93 3d
       -0.0825428 0.022145018 -0.033811346 0.07178423
0001d0 04 fc 81 bd e0 32 36 3c f8 a9 c0 bd 88 7a 2a bc
       -0.06346896 0.011120528 -0.09407419 -0.01040519
0001e0 46 5e 3b bd 10 c5 14 3c 55 8e 48 bd 0a 42 bd bd
       -0.045744203 0.0090801865 -0.048963863 -0.092411116
0001f0 5a 0e b7 3d 5c ed 63 bd 80 c8 7a bb 04 a1 be 3d
       0.08938284 -0.055646285 -0.003826648 0.09308055
000200 30 22 97 3b cc ec b0 bd 20 c5 d2 3b 94 4f 07 bd
       0.0046122298 -0.086389154 0.0064321905 -0.033034876
000210 80 96 d7 ba f8 22 77 bd 14 53 17 3d 98 7a b9 bd
       -0.0016448051 -0.060336083 0.036944464 -0.09056586
000220 9c aa 89 3d c0 8d 08 3b 86 b6 af 3d 60 03 c5 bd
       0.06721994 0.0020836443 0.085797355 -0.09619784
000230 58 ea 09 3d 80 05 4a 3b f4 18 8c 3c 72 3d a5 bd
       0.033670753 0.0030826032 0.017101742 -0.080683604
000240 66 1f ca 3d 5e a3 8b bd 62 1b 92 3d e8 d4 6c 3c
       0.0986927 -0.06818269 0.07134129 0.014455058
000250 ab 34 a0 bd d0 bf a9 bc 68 95 0d bd 2b 62 37 bd
       -0.078225456 -0.020721346 -0.034566313 -0.044771355
000260 60 05 29 3d 60 cb 5f 3c f6 d2 9c 3d 24 fa a9 bd
       0.04126489 0.013659328 0.07657425 -0.08299664
000270 16 8c a7 3d ac 01 a8 bd 6c e1 7e 3d 28 40 c5 bd
       0.08181016 -0.08203444 0.062226698 -0.096313775
000280 f8 61 b6 3d a9 2c 24 bd e6 46 84 3d 77 fa be bd
       0.08905405 -0.040081654 0.06458835 -0.09325116
000290 d0 44 9f 3d 70 2e eb bb e4 52 44 3d c2 f5 8a bd
       0.07776797 -0.0071771666 0.047930613 -0.06785156
0002a0 38 19 76 3d 90 d9 39 bc 30 25 90 3b 66 bd 87 bd
       0.060082644 -0.011343375 0.0043989643 -0.06627922
0002b0 b0 0a 23 3d f8 11 a8 bd d3 4e 51 bd dc 2f c5 bd
       0.039805114 -0.08206552 -0.051100563 -0.09628269
0002c0 80 b2 0a 3c 58 1b 1c 3d 53 37 c8 bd 41 79 a7 bd
       0.008465409 0.038112015 -0.09776177 -0.08177424
0002d0 32 42 b4 3d b6 eb be 3d 54 7f 9b bd ca 3d 93 3d
       0.08801688 0.09322302 -0.07592645 0.0718952
0002e0 ec 5e 12 3d 2a 9a b9 3d 20 18 ad bb f3 de 36 bd
       0.035735056 0.090626076 -0.005282417 -0.044646215
0002f0 eb be 9f bd 74 8b c7 3c 00 ba a0 bc 38 3f f8 bc
       -0.078000866 0.024358489 -0.019619942 -0.030303583
000300 30 0f 85 bd 2a 0d 9f bd 30 a7 ff bb 01 f8 4b bd
       -0.064970374 -0.07766183 -0.0078019127 -0.04979706
000310 f8 4c 0f bc f0 3a c4 3c 1f 60 5d bd 4c ce 8f 3d
       -0.008746378 0.023953885 -0.054046746 0.0702177
000320 b3 17 5c bd ed 52 6d bd 8c 0e a6 bc 98 cb 94 bd
       -0.05373354 -0.057940412 -0.020270608 -0.07265395
000330 ae 4e 8e 3d e0 2f 7c 3c d0 af 00 3d c6 fe 67 bd
       0.06948601 0.015392274 0.031417668 -0.056639455
000340 28 b7 ff 3c aa ce 80 3d e0 ac 14 3c ee 17 a4 3d
       0.031215265 0.06289418 0.00907442 0.08012377
000350 c8 cb 91 bd 91 12 2c bd b8 13 d0 bc 58 de 9f 3d
       -0.07118946 -0.042009894 -0.025400028 0.078060806
000360 7b af 94 bd 80 90 12 bc bd 4e 58 bd 14 50 a6 3c
       -0.07260033 -0.008945584 -0.052809466 0.020301856
000370 d6 55 ad bd a0 fd bf 3b 60 0a 47 3d 29 69 32 bd
       -0.084636375 0.005859092 0.04859388 -0.04355732
000380 60 94 4f 3d c0 d8 f9 ba b0 24 d1 bb f0 04 a9 3d
       0.05067861 -0.0019061789 -0.0063825473 0.08252895
000390 d7 09 54 bd f0 da fd 3c 30 dc 29 3c 80 2f 36 3c
       -0.051767197 0.030988187 0.010367438 0.011119723
0003a0 96 4a a2 bd 79 9d 9a bd fe 4f 8d 3d d2 23 89 bd
       -0.079243824 -0.07549567 0.06900023 -0.06696285
0003b0 30 6b b2 bb 38 90 14 3c ec 82 81 3c ad a2 92 bd
       -0.0054449067 0.009067588 0.015809499 -0.07159934
0003c0 00 12 2e bc 34 e7 22 3d d0 4a 95 3b 50 7d 8e bd
       -0.010624409 0.039771274 0.0045560375 -0.06957495
0003d0 a0 d5 4f bc e0 80 f8 3b b2 97 c9 3d e9 96 c1 bd
       -0.0126852095 0.0075837225 0.09843387 -0.09452612
0003e0 bc 6f bf 3d 24 16 25 3d 88 85 83 bc 74 8b 66 3d
       0.093474835 0.040304318 -0.016054884 0.056285337
0003f0 50 20 57 3d 5b c5 55 bd 2e 6f bc bd cc 97 4f 3d
       0.05252105 -0.052190166 -0.09200893 0.050681874

sequential/dense_1/MatMul f4 [15, 20]
000000 da 9a 29 3e ad 8c b0 be c4 7d fb bd 55 ce 91 be
       0.16562977 -0.34482327 -0.12279847 -0.2847773
000010 80 fa ce 3c 59 cb 36 be c0 32 c7 bc 72 7a 03 be
       0.025265932 -0.17851008 -0.024316192 -0.12839678
000020 fa 70 8a be fe 0a 58 3e 4c 05 f5 bd a5 2b 8f 3e
       -0.2703932 0.21097943 -0.11963901 0.27962986
000030 90 61 07 3d f0 bb 81 bc 7b 72 ca be c0 70 fe bb
       0.033052027 -0.015836686 -0.39540467 -0.0077649057
000040 e0 ba a5 3d 1c df d8 3d 12 0e 06 3e 29 75 ca be
       0.08092284 0.1058943 0.13091305 -0.3954251
000050 62 ff 4d 3e 00 64 84 3c a2 ef 04 3e 3b 85 97 be
       0.20116952 0.016160965 0.12982038 -0.29593834
000060 00 10 a1 38 a7 0a 8f 3d 39 5f c5 be 2e 1a 02 be
       7.6800585e-05 0.06984454 -0.38549212 -0.127053
000070 48 71 02 be b1 df a9 3e a0 73 5c 3c 7c a9 a0 3d
       -0.12738526 0.33178475 0.0134553015 0.078448266
000080 9d c8 d3 3e da 1f 1a be d0 73 49 3d 8a 96 99 3e
       0.41363993 -0.15051213 0.049182713 0.29997665
000090 38 5e 0e bd fd 37 aa 3e bc 2a aa 3d 69 03 93 3e
       -0.034757823 0.3324584 0.08308932 0.2871354
0000a0 13 19 af 3e 00 45 0a 3c 14 34 a7 be 27 6f b8 bd
       0.34198818 0.008439302 -0.3265692 -0.090055756
0000b0 7c 16 74 3e bc 44 fe 3d 13 c1 4e 3e 4a 5f 5a 3e
       0.23836702 0.12415454 0.2019084 0.21325412
0000c0 ed d4 4d be c4 72 7e be c0 cf 17 3c 30 36 1d 3d
       -0.20100756 -0.24848467 0.00926584 0.038381755
0000d0 32 21 0c be 09 fd 4d be 74 93 5c be c4 94 33 3e
       -0.13684538 -0.20116057 -0.21540624 0.17537218
0000e0 85 18 d1 be 1d 2b 48 be 5d 11 b8 3e b6 00 9d bd
       -0.4083902 -0.19547696 0.35950747 -0.07666151
0000f0 40 4c 66 bc 6e d4 1a be e4 80 42 be a3 ad 5d bc
       -0.014056265 -0.15120098 -0.1899448 -0.013530168
000100 15 3c c7 3e 60 1b 9d bc 36 8d 91 be 6d 27 69 3e
       0.38913026 -0.019178092 -0.28428048 0.22768946
000110 61 f1 a0 be d9 56 a1 3e 8c 2c fc 3d bc a3 85 be
       -0.31434157 0.31511572 0.12313184 -0.26101482
000120 aa dc 72 3e 58 12 42 bd 60 5e 28 bc 80 1e 3a bd
       0.23716989 -0.047380775 -0.010276407 -0.045439243
000130 fa ea 17 be 68 81 23 bd 53 33 60 be 2a 60 49 3e
       -0.1483573 -0.039918333 -0.21894579 0.1966559
000140 17 4e c2 3e 13 2d b3 3e 68 ae 53 3e 33 40 00 3f
       0.37950203 0.34995326 0.20672 0.5009796
000150 c6 45 7b be 62 cd 2f be 79 c7 78 be 77 d4 48 bd
       -0.24538335 -0.17168191 -0.24294843 -0.049030747
000160 ef 19 ad be 01 b0 a1 be ae 06 05 3e a0 82 20 bd
       -0.33808848 -0.31579593 0.1299083 -0.039187074
000170 2d 03 87 3e 46 cd 38 be 00 cc 2a 3d 2d 74 4a 3e
       0.2636961 -0.18047056 0.041698456 0.1977088
000180 a8 a4 b5 be 6f 18 bd be 1c a5 f3 bd ec 36 b5 be
       -0.35477185 -0.36932704 -0.118967265 -0.35393465
000190 9a 2f 41 3e 2c dc eb 3d 87 1d c4 3d dc a4 8b be
       0.18865815 0.11516604 0.095759444 -0.27274215
0001a0 1c ee c2 ba d8 04 ad 3d 93 18 69 3e 42 31 84 be
       -0.0014871988 0.084481895 0.2276328 -0.2581883
0001b0 e0 61 cb bc 33 a5 bc 3e f0 12 3e 3d 53 f2 bc 3e
       -0.024826944 0.36844787 0.04640478 0.3690363
0001c0 6f 4c a4 be ca f8 68 be c9 af 6c 3e 71 4f 8d be
       -0.32089564 -0.22751155 0.23113932 -0.2759967
0001d0 a4 9c 71 be 53 a6 85 3e 74 3f f6 3d 82 f3 09 3e
       -0.2359491 0.26103458 0.120238215 0.13471797
0001e0 c2 97 37 3e 1f 2c ad 3e 13 0f 2a be 38 07 71 be
       0.17928985 0.33822724 -0.16607313 -0.2353791
0001f0 c8 d8 74 3d 8c ec 82 be c9 dd 5b bd c1 49 a1 3e
       0.05977705 -0.25571096 -0.053678308 0.31501582
000200 68 0e 04 3d 6b 58 c4 3e df 88 a9 3e d6 32 72 3e
       0.0322403 0.38348708 0.33112237 0.23652205
000210 11 8d b9 be e6 66 33 3e 80 6d 53 be e7 22 11 3e
       -0.36240438 0.17519721 -0.2064724 0.1417347
000220 a9 69 a2 3e bd 89 a9 be 52 9d 49 3e 2a 03 45 3e
       0.31721237 -0.33112898 0.19688919 0.19239488
000230 f2 4b 39 be 1e f2 71 3e 84 31 70 3d 64 0c cd 3e
       -0.18095377 0.23627517 0.05864097 0.40048516
000240 23 6b 5b 3d 16 75 b2 3e 97 f3 89 3e ea 9d 09 3e
       0.05356897 0.34854954 0.26943657 0.13439146
000250 10 ae 55 bd 00 34 7f ba 3c 1e d7 3d 7c c5 ba 3d
       -0.052167952 -0.00097352266 0.105038136 0.091196984
000260 2a e3 49 3e 43 bb ce 3e 01 ff 00 be 74 93 6d be
       0.19715562 0.40377244 -0.12597276 -0.2320078
000270 b0 e5 a8 3c e7 d0 9b 3e 16 15 75 3e c8 2e c7 3c
       0.020617336 0.30432817 0.23933825 0.0243143
000280 10 98 43 bd f2 0d 7e 3e 38 41 cc 3e 4a 3c 8d 3f
       -0.04775244 0.24810007 0.39893508 1.1034024
000290 ab 53 61 3e 9a 45 b7 be 2c d9 bc be a2 d3 23 3e
       0.22004573 -0.3579529 -0.3688444 0.159987
0002a0 9e 02 11 3e 1b 6c 82 3e b9 39 a4 be 32 7a 51 be
       0.14161155 0.25473103 -0.3207529 -0.2045677
0002b0 37 0c b8 3e 14 e1 c6 bd b2 d9 93 be fc 32 39 3d
       0.3594682 -0.09710899 -0.28877026 0.045214638
0002c0 64 8d 9a be d1 df 82 3e 32 a8 0b 3e 7a 03 c6 be
       -0.30185997 0.25561383 0.1363838 -0.38674527
0002d0 20 a5 ad bd a6 76 68 3e 00 30 83 bc a1 57 0e 3f
       -0.08478761 0.22701511 -0.0160141 0.5560246
0002e0 34 af c3 3d 2c 65 cb 3e 32 2d cb be 27 8c 4e bd
       0.09554902 0.39725626 -0.3968292 -0.05042663
0002f0 f9 8b d3 be 02 f7 6e 3e a1 9b 63 be ed 9b 89 3e
       -0.41317728 0.23336414 -0.22227336 0.26876774
000300 00 7c 79 bb b5 b5 9e 3e 16 a1 bc be ee d7 77 3e
       -0.0038068295 0.30998006 -0.3684165 0.24203464
000310 27 20 b8 be 18 07 40 bd fb 99 72 be 26 fa 0a 3e
       -0.3596203 -0.046881765 -0.23691551 0.13571987
000320 4a ea 35 3e 6e 75 27 be b5 49 af be 7e db 85 be
       0.17765155 -0.1635339 -0.34235922 -0.26144022
000330 2c 6c 8d bd 60 50 7e 3d 17 3c 0d 3e 48 28 1d 3e
       -0.06905398 0.06208837 0.13792454 0.15347397
000340 dd 13 c4 3e fe cd 12 be 3c 1c 00 be 80 4c f5 3c
       0.38296404 -0.14336392 -0.1251077 0.029943705
000350 5c d6 ea bd 4e f9 1a be 7e b7 b2 be 6e 7e b4 be
       -0.11466667 -0.15134165 -0.34905618 -0.35252708
000360 8c 02 21 be 9f dd a9 be f1 1d 81 3e be 77 0d 3e
       -0.15723628 -0.33176896 0.25218156 0.1381521
000370 a4 7f d7 bd ac 25 a7 3d 88 a6 00 3d 03 10 77 bd
       -0.105223924 0.08161482 0.031408817 -0.060318004
000380 ed ac 50 be c9 75 a8 3e da 00 73 3e 20 07 96 be
       -0.20378466 0.32902363 0.23730794 -0.2930231
000390 84 db e5 3d 81 b5 91 be 84 34 ed bd 3c ac 9a 3d
       0.1122351 -0.2845879 -0.11582282 0.07552382
0003a0 9e d6 2a 3e 86 35 a5 be d7 cc 8f be 05 54 ac be
       0.16683432 -0.32267398 -0.28085968 -0.33657852
0003b0 ec 3b 26 be 28 6b ab bd fe b3 0c 3e 9f 0b 94 3e
       -0.16233796 -0.08370048 0.13740537 0.28915116
0003c0 9f 6c 9f 3e e1 3c 9b 3e b4 3f 77 be 65 3c f2 bd
       0.3113756 0.30319884 -0.24145395 -0.118279256
0003d0 db 85 cd be 10 cc 9e be fb c2 9e 3e d1 fe f3 3c
       -0.40141186 -0.31015062 0.31008133 0.029784592
0003e0 9a c5 0c 3e d0 46 9d bc 88 4e 99 bd 40 5b dc 3b
       0.13747254 -0.019198805 -0.07485682 0.006724745
0003f0 62 32 22 3e 5a 23 04 be 66 02 78 be 45 13 5c 3e
       0.15839532 -0.1290411 -0.24219665 0.21491726

sequential/dense_2/MatMul f4 [10, 15]
000000 9e bf 3c 3e 91 d7 dd 3e 74 86 66 3e ba c7 c0 3e
       0.18432471 0.43328527 0.22512227 0.3765238
000010 09 d4 a6 bf 8a 1c 38 3c 25 74 86 3d d6 77 a0 3d
       -1.3033458 0.011237273 0.065651216 0.07835357
000020 73 33 e5 c0 86 80 63 bf d9 75 8e 3e 6a f7 91 3e
       -7.1625304 -0.88867986 0.27824286 0.28509074
000030 8c 29 86 be 6d 47 24 3e 7b 8f 7b 3e 16 ab 1b 3e
       -0.26203573 0.16042872 0.24566452 0.15201983
000040 10 96 87 3e a3 1f 99 3d 16 48 ff 3d 77 90 2d 3e
       0.26481676 0.07476737 0.12464921 0.1694964
000050 4b a5 47 3e 3c b8 fb be 6b 32 72 bf 84 32 46 bf
       0.19496648 -0.49163997 -0.9460818 -0.7742083
000060 0c a5 c8 bf 2f 2d 27 3e d1 f0 c9 3d 3c c0 a9 bd
       -1.5675368 0.1632583 0.09860385 -0.08288619
000070 ee 31 28 be 66 6d c7 be ae e4 6d 3e 81 cc e4 bd
       -0.16425297 -0.38950652 0.23231766 -0.111718185
000080 dd 2a e8 be f6 30 01 3e c0 d6 ea c0 3b 05 14 be
       -0.45345202 0.12616333 -7.3387146 -0.1445512
000090 23 45 97 be 1e 57 e5 c0 69 8d af c0 85 24 cb c0
       -0.29544935 -7.1668844 -5.486012 -6.348208
0000a0 80 b6 83 bc c2 da e4 bd 76 0f ea bd e5 af a5 be
       -0.016078234 -0.11174537 -0.1142873 -0.3236076
0000b0 27 6f 63 3e 37 bb 86 3e a9 99 8d 3e 72 5c 21 3c
       0.2221037 0.2631471 0.27656296 0.009848701
0000c0 a1 7b 81 be fb a2 a3 c0 06 a4 a2 3e 7f 62 70 be
       -0.25289634 -5.113645 0.31765765 -0.23475073
0000d0 da 77 11 c1 95 f7 3a c0 dc ad 99 c1 bd a3 16 be
       -9.091761 -2.9213612 -19.209892 -0.14710899
0000e0 d0 bd 87 3e 16 03 60 3e 95 3b c7 3c cf 3a c3 3e
       0.26512003 0.21876177 0.024320403 0.38130805
0000f0 ba fa 6b be 2d 89 9e 3d 11 a1 b5 be 54 c8 c9 3e
       -0.23044863 0.07741008 -0.35474446 0.3941065
000100 87 4a 9a c0 dd a9 18 3e 00 a5 9a 3e 72 4e 16 c1
       -4.8215976 0.14908548 0.3020401 -9.394152
000110 47 3f 1b c0 ce 9d 99 c1 7a 4d 3b 3e 7a cc 92 be
       -2.4257371 -19.202053 0.18291274 -0.28671628
000120 80 7a b1 3e ee a8 71 be e2 03 03 3e ab a1 a8 be
       0.34663773 -0.23599598 0.1279445 -0.32935843
000130 ae 9a 09 be d6 77 d1 3d d6 fd 37 3e e1 21 3f bf
       -0.13437912 0.10227935 0.17967924 -0.7466107
000140 32 6f 50 3e 83 57 fe 3c 40 ef c2 bf f5 c5 f6 3f
       0.20354918 0.031047588 -1.5229263 1.9279162
000150 e9 3f 22 c0 79 3d 13 be f2 1f d5 be 15 e8 4a 3e
       -2.5351508 -0.14378919 -0.41625935 0.19815095
000160 4f f1 4f be 2a 27 5f 3d 26 77 8a be d5 9e 91 3e
       -0.20306896 0.05448071 -0.27044028 0.28441492
000170 f5 c2 b2 be 0c 35 bb bd 6a f8 e1 c0 ac bc 49 3d
       -0.34914365 -0.09140977 -7.061574 0.049252197
000180 9d b6 5b 3d b0 86 87 c0 f2 8b e8 c0 d5 a9 00 c0
       0.05364095 -4.2351913 -7.267083 -2.0103657
000190 90 cc cf be cc 51 4a be d0 fb 9d be ee 67 c0 3e
       -0.40585756 -0.19757766 -0.3085618 0.37579292
0001a0 bc 47 ea bc 88 20 0d be ba 05 f0 3d 24 0f 94 be
       -0.028598659 -0.13781941 0.11719842 -0.289178
0001b0 aa 5c 24 3e 29 49 c3 c0 7a 9e ba be 05 77 15 be
       0.16050974 -6.1026807 -0.36449033 -0.14596184
0001c0 5f 9e da c0 e4 9d 91 c0 9f ee 27 c1 77 ec 9d 3e
       -6.8318324 -4.5505238 -10.495757 0.3084447
0001d0 c6 51 96 bd 10 76 d6 be 80 fa 16 3e b7 3c 3d bd
       -0.07339816 -0.4188695 0.14743996 -0.04620048
0001e0 d7 4c af 3e fc cb a2 3e 70 f8 b5 3e 7d fa 58 be
       0.34238312 0.31796253 0.35541105 -0.21189304
0001f0 a4 18 06 c1 24 15 d8 3d b4 1c e1 bd 7f 93 ea c0
       -8.381016 0.10550907 -0.10991803 -7.330505
000200 f2 f3 c4 c0 a2 35 a6 c0 d3 f9 00 bf 1f 97 dd 3d
       -6.1547785 -5.194047 -0.503812 0.1081984
000210 1f 66 83 be 97 38 ba 3e 3a 11 11 3e 1f da d9 3e
       -0.2566385 0.363713 0.14166728 0.42549226
000220 de 77 29 bd 24 09 de 3e 2f 50 44 3e c3 43 93 c0
       -0.04137408 0.4336635 0.19171213 -4.6020217
000230 4e bd e0 be 77 03 75 be ef 29 0b c1 e5 73 1a c0
       -0.43894428 -0.23927103 -8.697738 -2.4133236
000240 b0 51 91 c1 a6 ae da be 3f 56 89 3e 46 54 f8 be
       -18.164886 -0.4271137 0.26823613 -0.48501796
000250 34 69 3b 3e d9 f3 cc be
       0.1830185 -0.4002979
