chew20_model.tflite (tflite, 148012 bytes, 6 tensors)

dense_2/bias f4 [2]
0	0xbe16e8c9	-0.14737238
1	0x3e16e8c4	0.1473723

dense_1/bias f4 [15]
0	0x3c71ed94	0.014766116
1	0x3e479b50	0.19492841
2	0xbe1f4c0c	-0.15556353
3	0xbc35ff81	-0.01110828
4	0xbc4326a6	-0.01191107
5	0xbd7ed933	-0.062218856
6	0xbb4f3e18	-0.0031622704
7	0xbe1e3ef2	-0.15453699
8	0xbaa7d738	-0.0012805229
9	0xbe1c57cc	-0.15267867
10	0xbd39d47d	-0.04536866
11	0x3e3f5500	0.18684769
12	0xbb4f3e1d	-0.0031622716
13	0xbe4afa7a	-0.19822112
14	0x3e21a08a	0.15783897

dense/bias f4 [50]
0	0x00000000	0.0
1	0xbb4f3df4	-0.003162262
2	0xbb293660	-0.0025819764
3	0xbbf3731c	-0.0074294936
4	0xbba9d59e	-0.005182936
5	0x3d5b3b21	0.053523187
6	0x00000000	0.0
7	0xbb4f3dce	-0.0031622532
8	0x00000000	0.0
9	0xbb4f3dac	-0.0031622453
10	0x00000000	0.0
11	0x00000000	0.0
12	0xbb80963c	-0.0039241593
13	0xbb4f3b90	-0.0031621195
14	0x00000000	0.0
15	0xbb4f3dcf	-0.0031622534
16	0xbb4f3d48	-0.003162222
17	0x00000000	0.0
18	0x00000000	0.0
19	0xbb4f39e0	-0.003162019
20	0xbb4f3c03	-0.0031621463
21	0xbbe4be31	-0.0069806804
22	0x00000000	0.0
23	0xbb4f3df3	-0.0031622618
24	0x00000000	0.0
25	0xbb4f3bc1	-0.003162131
26	0x00000000	0.0
27	0x00000000	0.0
28	0x00000000	0.0
29	0x00000000	0.0
30	0xba3431f0	-0.00068738963
31	0x00000000	0.0
32	0x00000000	0.0
33	0x00000000	0.0
34	0x00000000	0.0
35	0x00000000	0.0
36	0x00000000	0.0
37	0x00000000	0.0
38	0xba790f08	-0.0009500836
39	0xbb909689	-0.0044124764
40	0xba48d438	-0.00076610176
41	0x00000000	0.0
42	0xbb4f3bb1	-0.0031621272
43	0x00000000	0.0
44	0x394ce194	0.0001953899
45	0x00000000	0.0
46	0xbb4f3db9	-0.0031622483
47	0x00000000	0.0
48	0x00000000	0.0
49	0xbb94be0d	-0.0045392574

sequential/dense/MatMul f4 [50, 714]
0	0xbb20f040	-0.0024557263
1	0xbca25580	-0.01981616
2	0x3cbec14c	0.02328553
3	0xbda37e6c	-0.079830974
4	0x3d01158a	0.031514682
5	0x3da39652	0.07987656
6	0xbd0bf806	-0.03417208
7	0xbd1b3cb2	-0.03789968
8	0x3c9c2a64	0.019063182
9	0x3d9c370c	0.07627687
10	0xbc589830	-0.013219878
11	0x3cd94660	0.026522815
12	0xbda24f75	-0.079253115
13	0x3c6fe558	0.014642082
14	0x3d53b7dc	0.051689014
15	0xbd5f6c49	-0.05454663
16	0x3d4ff7cc	0.050773427
17	0xbd99d76a	-0.0751179
18	0x3dae142c	0.08499941
19	0xbd1c799f	-0.038201924
20	0xbda1c1a7	-0.078982644
21	0xbda279b2	-0.07933368
22	0xbc311c00	-0.010809898
23	0xbd197382	-0.037463672
24	0x3d4d5d5c	0.050137863
25	0xbd4c9576	-0.049947225
26	0xbc043258	-0.0080686435
27	0x3bb5a540	0.005543381
28	0x3d84c1fc	0.06482312
29	0xbd2efdc3	-0.042722475
30	0x3c927288	0.017876878
31	0x3d790280	0.0607934
32	0x3b029d20	0.001993008
33	0xbda2148e	-0.07914077
34	0xbdafa568	-0.085764706
35	0xbccd575c	-0.02506607
36	0x3b25d0c0	0.0025301427
37	0x3c930a34	0.017949201
38	0xbd574b25	-0.052561898
39	0x3d96c9a8	0.073626816
40	0xbd8fdab6	-0.07024138
41	0xbd78bcf0	-0.06072706
42	0xbd7700ff	-0.060303684
43	0x3c1209b0	0.0089134425
44	0xbaa044c0	-0.001222752
45	0xbd65b0eb	-0.056076925
46	0x3d83e6ca	0.06440504
47	0x3cff886c	0.03119298
48	0xbd281b80	-0.04104185
49	0xbda9630f	-0.08270847
50	0xbd4c7f3d	-0.04992603
51	0xbb79cc80	-0.0038116276
52	0x3bbd1a80	0.0057709813
53	0xbd623e22	-0.055235036
54	0xbda6698a	-0.08125599
55	0xbcd2ba48	-0.025723591
56	0x3cf779f0	0.030209512
57	0xbd53f4be	-0.051747076
58	0xbd7a9150	-0.061173737
59	0x3c471868	0.012151815
60	0xbcfe0efe	-0.031013008
61	0xbcef9d20	-0.029249728
62	0xbd988108	-0.07446486
63	0xbc5159f0	-0.01277779
64	0x3da3a264	0.07989958
65	0xbd4201ea	-0.047365107
66	0xbbd30170	-0.0064393803
67	0x3d526f04	0.051375404
68	0x3b8153e0	0.0039467663
69	0xbd6f8f42	-0.05848623
70	0xbdb0eab2	-0.086385146
71	0x3d34d818	0.044151396
72	0x3da1ba84	0.07896903
73	0x3d25813c	0.04040645
74	0x3da685de	0.08131002
75	0x3d7e2638	0.062048167
76	0xbc903454	-0.017603077
77	0xbdab684c	-0.083695024
78	0xbd37005f	-0.04467809
79	0x3db22f96	0.087004825
80	0xbd4577c1	-0.04820991
81	0xbd8d2709	-0.06892211
82	0x3c624358	0.013810001
83	0xbd6131f9	-0.0549793
84	0x3c056458	0.0081416
85	0xbd21f46c	-0.03953974
86	0x3d8f6f40	0.07003641
87	0xbd0f49ff	-0.034982678
88	0xbd9b845b	-0.07593604
89	0x3aa491c0	0.0012555644
90	0xbae029c0	-0.0017102286
91	0xbd8058ba	-0.06266923
92	0x3c186628	0.0093017
93	0x3c8c27f8	0.017108902
94	0xbd7615b6	-0.0600793
95	0x3d0ddaaa	0.034632362
96	0xbc1c2d30	-0.009532258
97	0x3cacbfa8	0.021087483
98	0x3bdef550	0.006804146
99	0xbbdf4a00	-0.0068142414
100	0xbc6c00d0	-0.014404491
101	0xbc9611fc	-0.018319122
102	0x3d3a40cc	0.04547195
103	0x3c992bd8	0.018697664
104	0xbb472820	-0.0030388907
105	0x3d94fafc	0.07274434
106	0x3d840360	0.06445956
107	0x3ce2f7b8	0.027706012
108	0x3d181334	0.03712769
109	0xbd34af0b	-0.044112246
110	0x3c4ca2a8	0.012489952
111	0x3d59fa54	0.053217247
112	0xbd6c2c8f	-0.057659682
113	0x3cdc063c	0.026858442
114	0x3d835f92	0.06414713
115	0xbc0fa1a0	-0.008766562
116	0xbda372cb	-0.079808794
117	0xbd97b8b6	-0.07408278
118	0x3d9e04fe	0.07715796
119	0x3d9f9842	0.07792713
120	0xbda44819	-0.08021564
121	0x3d90f250	0.070774674
122	0xbd74ba8c	-0.059748217
123	0x3d62d128	0.05537525
124	0xbc63da18	-0.013906978
125	0x3d02f538	0.03197214
126	0xbc20e048	-0.009819098
127	0xbdadd7b9	-0.084884115
128	0xbd66906a	-0.056290068
129	0x3d2cd450	0.042194664
130	0x3db2127a	0.086949304
131	0x3db13052	0.086517945
132	0xbcfad096	-0.03061704
133	0x3d813f28	0.06310874
134	0xbb175a80	-0.0023094714
135	0xbd966bb6	-0.07344763
136	0xbcab8e1c	-0.020941786
137	0xbc54d860	-0.012991041
138	0xbcc83518	-0.02443938
139	0xbd05afea	-0.032638468
140	0x3c5fea40	0.013666689
141	0x3dafad98	0.08578032
142	0xbd94eede	-0.07272123
143	0x3ccd7304	0.025079258
144	0xbd1316cb	-0.03591041
145	0xbd75bf88	-0.05999711
146	0xbc4c5d30	-0.0124733895
147	0xbd61ddd4	-0.055143192
148	0xbbdae2a0	-0.006679848
149	0xbc75cad0	-0.015001968
150	0xbcdb2360	-0.026750267
151	0xbda96ffc	-0.082733124
152	0xbdb08521	-0.08619142
153	0x3db297e4	0.08720377
154	0x3d9a0144	0.07519773
155	0xbad709c0	-0.0016406104
156	0x3d964c4e	0.07338773
157	0xbd0aed9d	-0.033918012
158	0xbc5925a0	-0.013253599
159	0xbd4f2bea	-0.05057899
160	0x3d956268	0.0729416
161	0xbd40b218	-0.047044843
162	0xbcf5da7e	-0.030011412
163	0xbd2c066d	-0.041998316
164	0x3d2bf260	0.041979194
165	0xbdab6c98	-0.08370322
166	0x3d914fbe	0.07095288
167	0x3b609a00	0.0034271479
168	0x3d0e3344	0.03471686
169	0xbd217b80	-0.03942442
170	0x3d9faec4	0.07797006
171	0x3d1b13f0	0.03786081
172	0x3d2aec54	0.041729286
173	0xbc1bb328	-0.009503163
174	0xba07d500	-0.0005181581
175	0x3d604490	0.054752886
176	0x3db07ee4	0.086179525
177	0xbd420a45	-0.047373075
178	0x3c92f9d0	0.017941386
179	0xbd5e46b0	-0.05426663
180	0xbd06aee5	-0.032881636
181	0xbd3190ab	-0.043350857
182	0x3c90a988	0.017658964
183	0x3c9c6b7c	0.019094221
184	0x3cc9cfb4	0.024635173
185	0x3c6be0f0	0.014396891
186	0x3d1bda7c	0.03805016
187	0xbc08ecf8	-0.008357279
188	0x3d3f376c	0.046683714
189	0xbd6bfbd2	-0.0576132
190	0xbd9540d2	-0.07287754
191	0x3b6da860	0.003626369
192	0xbd9119d4	-0.070850044
193	0x3d831596	0.064006016
194	0x3d4560b8	0.04818794
195	0x3d208428	0.039188534
196	0x3d9ab370	0.07553756
197	0xbcc36c8c	-0.02385547
198	0xbd842c76	-0.06453793
199	0x3d0ef144	0.034898058
200	0xbd597317	-0.053088274
201	0xbc5fe9a0	-0.01366654
202	0xbdaebead	-0.08532462
203	0xbd92d82f	-0.0717014
204	0xbcd163ac	-0.025560223
205	0x3d03a0b8	0.032135695
206	0x3c578e88	0.013156541
207	0xbd49b18e	-0.049241595
208	0xbd36d2d2	-0.044634648
209	0x3ca14d78	0.01969026
210	0x3be68870	0.0070353076
211	0x3d981eaa	0.07427724
212	0x3d4bbc70	0.049740255
213	0xbcc3b0f4	-0.023888089
214	0xbd4bac26	-0.04972472
215	0xbd062e21	-0.032758836
216	0x3daa2972	0.08308686
217	0x3d2a2500	0.041539192
218	0x3cbff010	0.0234299
219	0x3c6627c8	0.0140475705
220	0x3d8cb0c8	0.06869656
221	0x3d59d43c	0.053180918
222	0x3d84c03e	0.0648198
223	0x3d55e7c4	0.052222982
224	0x3d0ff3ae	0.0351445
225	0xbd881a09	-0.06645591
226	0x3da61584	0.081095725
227	0xbd473693	-0.04863603
228	0xba103780	-0.0005501434
229	0xbcc19e00	-0.02363491
230	0xbd89c120	-0.06726289
231	0xbca681d0	-0.020325571
232	0xbd4ce6ca	-0.050024785
233	0xbd132934	-0.035927966
234	0xbd601a7d	-0.05471276
235	0x3b6a2b80	0.0035731494
236	0x3d84d072	0.0648507
237	0x3d974854	0.07386842
238	0x3d50dff8	0.050994843
239	0x3d17376c	0.03691809
240	0x3c0c3958	0.008558594
241	0x3db466cc	0.088086694
242	0xbd8e9dc0	-0.06963682
243	0xbd86c3ad	-0.06580291
244	0x3be14f90	0.0068759397
245	0x3d68aab8	0.056803435
246	0xbc4e98e0	-0.01260969
247	0x3c3bc930	0.011461541
248	0x3d41ce90	0.047316134
249	0x3da4c94e	0.08046208
250	0x3ced58ac	0.028972946
251	0xbd5c9db1	-0.053861324
252	0x3d7669ac	0.06015937
253	0x3db372ec	0.08762154
254	0xba337b80	-0.0006846711
255	0x3d2488fc	0.0401697

sequential/dense_1/MatMul f4 [15, 50]
0	0x3df8e974	0.12153903
1	0xbe818d4b	-0.2530311
2	0xbda3e0c7	-0.08001857
3	0xbe4a095d	-0.19730134
4	0x3cd280e5	0.025696227
5	0xbdf3f0f3	-0.11911192
6	0xbc922bf0	-0.017843217
7	0xbdc0f518	-0.09421748
8	0xbe4b2d22	-0.19841436
9	0x3e1e883c	0.15481657
10	0xbdb3cbca	-0.08779104
11	0x3e521de8	0.20519221
12	0x3d0f2a16	0.034952246
13	0xbc3e65e0	-0.011620969
14	0xbe948e3d	-0.2901477
15	0xbbbab540	-0.005697876
16	0x3d7339a0	0.059381127
17	0x3d9f23e4	0.077705175
18	0x3dc4bd24	0.09606388
19	0xbe949034	-0.29016268
20	0x3e833cd6	0.25632352
21	0x3e8edf19	0.27904585
22	0x3e402ffe	0.18768308
23	0x3e968906	0.29401416
24	0x3e66afe8	0.2252804
25	0xbde5908e	-0.11209212
26	0xbe0a743b	-0.13520901
27	0x3e575274	0.21027547
28	0x3e54c2cc	0.20777434
29	0xbe8276af	-0.25481173
30	0x3e2a1353	0.16608934
31	0x3cfacd50	0.030615479
32	0xbe980805	-0.29693618
33	0x3e98e3f0	0.29861403
34	0x3e8a280c	0.26983678
35	0x3e8d20ba	0.2756403
36	0xbe30a21f	-0.17249344
37	0x3e0425ee	0.12905094
38	0xbe5f6944	-0.218175
39	0xbdeb61ce	-0.11493264
40	0x3e24d92a	0.16098467
41	0x3e2a237e	0.16615102
42	0x3d979238	0.07400936
43	0x3d4d7ff8	0.05017087
44	0x3e9a822d	0.3017744
45	0xbe49d2f8	-0.19709384
46	0x3da522b8	0.08063263
47	0x3e6dad28	0.23210585
48	0x3e0b5e28	0.13610137
49	0xbe640f86	-0.22271547
50	0x3e172932	0.14761809
51	0x3c0e7d3e	0.008696852
52	0x3daf569c	0.08561441
53	0xbf3a5607	-0.7278752
54	0xbb56bb41	-0.003276542
55	0x3e3ae51b	0.1825146
56	0xbe8fa4ca	-0.28055412
57	0xbdc0a984	-0.094073325
58	0xbdbf6ff0	-0.09347522
59	0x3e7611c4	0.24030215
60	0x3c21c460	0.00987348
61	0x3d6bc990	0.05756527
62	0x3e944027	0.28955194
63	0xbde8a5c4	-0.11359742
64	0x3d13d360	0.036090255
65	0x3e608b25	0.2192808
66	0xbcead808	-0.028667465
67	0x3e79d010	0.24395776
68	0x3d79bca0	0.060970902
69	0x3e5484c0	0.20753765
70	0x3e2cd2b0	0.16877246
71	0xbf378ffc	-0.7170408
72	0xbe0840b8	-0.13305938
73	0x3e191c75	0.14952262
74	0x3e6c8920	0.23099184
75	0x3d6d6f77	0.05796763
76	0xbe29d424	-0.16584831
77	0xbb7a9000	-0.0038232803
78	0x3e1c6538	0.15272987
79	0x3c790c60	0.015200704
80	0x3d79f610	0.06102568
81	0x3cc131f0	0.023583382
82	0xbcf76920	-0.030201495
83	0x3e85feb8	0.26170897
84	0x3c097580	0.008389831
85	0x3d830cb8	0.0639891
86	0x3ccf0750	0.025272042
87	0xbe45cf0b	-0.19317262
88	0xbe452cf7	-0.19255434
89	0x3e5f51e2	0.2180858
90	0x3e89b963	0.2689925
91	0xbe1fb9cd	-0.15598221
92	0xbe4b77a2	-0.19869855
93	0x3d6c9190	0.057756007
94	0x3e8c2357	0.27370712
95	0x3e9695ce	0.29411167
96	0x3dbc9c7d	0.09209535
97	0xbd321a88	-0.043482333
98	0x3cb93c80	0.022611856
99	0xbcc05422	-0.023477618
100	0x3e807c9c	0.2509507
101	0x3bcaecc0	0.0061927736
102	0xbe6cba49	-0.23117937
103	0x3f3735ee	0.71566665
104	0x3e3f73ae	0.18696472
105	0x3d96a66b	0.073559605
106	0x3e1cab32	0.15299681
107	0x3e20d9b0	0.15708041
108	0xbe170a09	-0.14749922
109	0xbe3ab6c8	-0.18233788
110	0x3bdecc80	0.0067992806
111	0x3ce6b940	0.028164506
112	0xbdbbe2a5	-0.091740884
113	0xbe172777	-0.14761148
114	0xbe1f7c0c	-0.15574664
115	0x3e0217e6	0.12704429
116	0xbe996f32	-0.29967648
117	0xbe12e22a	-0.14344087
118	0x3e8711a0	0.26380634
119	0xbd5ce9d8	-0.05393395
120	0xbe2d58ea	-0.1692845
121	0x3f4a34cf	0.7898683
122	0x3e1dbbea	0.15403715
123	0x3def4bc8	0.11684376
124	0xbe870054	-0.26367438
125	0xbe7f80fb	-0.24951546
126	0x3d3dd1c8	0.04634264
127	0xbe5d54d0	-0.21614385
128	0x3e7ed1e4	0.24884754
129	0xbd98d29a	-0.07462044
130	0x3e46346d	0.19355936
131	0x3e12eea8	0.14348853
132	0x3df9fb94	0.12206188
133	0x3e540540	0.20705128
134	0x3e856a84	0.26057827
135	0xbe7b3162	-0.24530557
136	0xbe40bb9e	-0.1882157
137	0x3de38b4c	0.11110553
138	0x3e6bbb73	0.23020725
139	0xbe5a1f99	-0.21301116
140	0x3d8e9c5e	0.069634184
141	0x3d73f468	0.059559256
142	0xbcec8600	-0.02887249
143	0xbd108748	-0.035285264
144	0x3e2f7488	0.17134297
145	0x3dc889d4	0.09791914
146	0x3e836990	0.25666475
147	0x3e8f4482	0.27981955
148	0x3e162f7e	0.14666554
149	0x3e8f7a04	0.28022778
150	0xbc28fe20	-0.010314494
151	0xbde9b449	-0.1141134
152	0xbe15a511	-0.14613749
153	0xbcf0081b	-0.02930074
154	0x3e8ae742	0.2712956
155	0xbcca58a1	-0.024700465
156	0xbe559c82	-0.20860484
157	0x3e27f36a	0.16401449
158	0xbe6c3317	-0.23066364
159	0x3e698b16	0.22806963
160	0x3db90b8c	0.090354055
161	0xbe442119	-0.19153251
162	0x3e2a9ea8	0.16662085
163	0xbd1b5a2e	-0.0379278
164	0xbbf71900	-0.007540822
165	0xbd1586d2	-0.036505528
166	0xbde56e47	-0.11202674
167	0xbceff5e0	-0.029292047
168	0xbe2484a7	-0.16066228
169	0x3e1087fb	0.14114372
170	0xbe8205f6	-0.25395173
171	0x3d6f77b9	0.058463786
172	0x3dd80bf4	0.10549155
173	0xbe61a645	-0.22036083
174	0xbe799b62	-0.2437568
175	0x3e80403a	0.25049
176	0xbe434dcf	-0.1907265
177	0x3e4162de	0.18885371
178	0xbdaaac80	-0.08333683
179	0xbe58e458	-0.21180856
180	0xbcd42af6	-0.025899392
181	0xbe067667	-0.13131104
182	0x3e863b78	0.26217246
183	0xbe608722	-0.21926549
184	0xbda60e2e	-0.08108173
185	0x3de28590	0.11060631
186	0x3d91f940	0.07127619
187	0xbc1125c0	-0.008859098
188	0x3d7d16be	0.061789267
189	0xbd49e526	-0.0492908
190	0xbe43da78	-0.19126308
191	0x3d7db530	0.061940372
192	0x3dfbd701	0.12296868
193	0xbe625cd8	-0.2210573
194	0x3d866d04	0.06563762
195	0xbce291b0	-0.02765736
196	0xbb7c7b4b	-0.0038525637
197	0x3e3e3f6e	0.18578884
198	0xbcbc3c40	-0.022977948
199	0x3d18ba25	0.037286896
200	0x3e8e94b6	0.27847832
201	0x3e81dc38	0.25363326
202	0x3e13cbf9	0.14433278
203	0x3d91a61b	0.0711176
204	0xbe46f1b3	-0.19428138
205	0xbe0cb430	-0.13740611
206	0xbe2fc4c5	-0.17164905
207	0xbcf87f7e	-0.03033423
208	0xbe7e0b12	-0.2480891
209	0xbe7087bb	-0.23489277
210	0x3dc33a9c	0.09532663
211	0xbceb9080	-0.028755426
212	0x3e39b90b	0.18136995
213	0xbe0ad775	-0.13558753
214	0x3cfaa950	0.030598313
215	0x3e16e3d9	0.14735354
216	0xbe86e8a2	-0.2634936
217	0xbe8ac214	-0.27101195
218	0xbdb2c95a	-0.08729811
219	0xbe86981c	-0.26287925
220	0x3dbb2240	0.09137392
221	0x3ce080d0	0.027405173
222	0x3e810982	0.25202566
223	0x3e8be5df	0.27323815
224	0x3dc6f728	0.0971511
225	0x3cf6f77d	0.030147308
226	0xbce11380	-0.027475119
227	0xbdcb9506	-0.09940533
228	0x3e3312d2	0.17487648
229	0x3e31c670	0.17360854
230	0xbe92f688	-0.28703713
231	0xbd40dea0	-0.04708731
232	0xbe610918	-0.21976125
233	0xbe6d762a	-0.23189607
234	0x3e827828	0.25482297
235	0xbe5e8b25	-0.21732767
236	0x3cf27430	0.029596418
237	0xbe04225c	-0.12903732
238	0xbe33b460	-0.17549276
239	0xbd8fe50b	-0.07026108
240	0x3dab94d7	0.08377998
241	0x3e8f1d9e	0.27952284
242	0x3d09a296	0.03360232
243	0xbd65248c	-0.055943057
244	0xbcc5cb23	-0.024144715
245	0xbe8d5205	-0.27601638
246	0x3dcca2d8	0.099919975
247	0x3e6fb6a8	0.23409522
248	0xbdc1f0c6	-0.09469752
249	0x3e5fc817	0.21853672
250	0x3e0dc27e	0.13843724
251	0x3dad12f0	0.08450878
252	0x3d9b8c24	0.07595089
253	0xbe5c4768	-0.21511614
254	0x3aa11800	0.0012290478
255	0x3aecc7b8	0.0018064892

sequential/dense_2/MatMul f4 [2, 15]
0	0x3e729c9c	0.23692554
1	0xbc9b389d	-0.018947894
2	0xbd1a22a1	-0.03763068
3	0xbe9d440d	-0.3071598
4	0x3ed72b92	0.4202543
5	0x3ef4f987	0.47846624
6	0xbe039750	-0.1285069
7	0x3e8a787c	0.27045047
8	0x3eb124a4	0.34598267
9	0x3f07f57a	0.5310894
10	0x3e80e8d0	0.25177622
11	0xbf5e48e4	-0.8682997
12	0xbed11946	-0.40839595
13	0x3e1bea19	0.1522602
14	0x3dde77a2	0.10862662
15	0x3e2f0e16	0.17095217
16	0x3f1eaa8b	0.6197898
17	0xbf2427d7	-0.6412329
18	0xbe407046	-0.18792829
19	0x3f02cc68	0.5109315
20	0x3ec064a1	0.37576774
21	0x3eabff66	0.3359329
22	0xbeadd93d	-0.33954802
23	0x3e183e00	0.14867401
24	0xbe4fce1e	-0.20293471
25	0x3e0a1fe6	0.13488731
26	0x3eb9038a	0.36135513
27	0x3e1c7d84	0.15282255
28	0xbf61855e	-0.8809413
29	0x3f664e51	0.8996325
