chewvsnonchew_model.tflite (tflite, 60412 bytes, 6 tensors)

dense_2/bias f4 [2]
00000000: 4e56 383d 5656 38bd
0.04500418 -0.04500421

dense_1/bias f4 [15]
00000000: 0000 0000 0000 0000 accc bb3c b280 b9bc
00000010: 7fb0 11be 2747 a73b 0000 0000 88bd a33c
00000020: ae39 7f3c bfa8 fb3c 0000 0000 0a3e 4fbb
00000030: 0000 0000 0000 0000 26bf a2bb
0.0 0.0 0.022924744 -0.022644375 -0.14227484 0.0051049176 0.0 0.019987836
0.015577717 0.030720113 0.0 -0.0031622672 0.0 0.0 -0.0049666343

dense/bias f4 [20]
00000000: 0000 0000 0000 0000 b89f fbbb b2e9 2a3c
00000010: 6707 0fbc 0000 0000 9ddd 82bb 0000 0000
00000020: 0000 0000 0000 0000 0000 0000 0000 0000
00000030: 0000 0000 0000 0000 0e3d 4fbb 713d 4fbb
00000040: 0000 0000 0000 0000 0000 0000 283d 4fbb
0.0 0.0 -0.007678952 0.010431694 -0.008729792 0.0 -0.0039937035 0.0
0.0 0.0 0.0 0.0 0.0 0.0 -0.0031622085 -0.0031622315
0.0 0.0 0.0 -0.0031622145

sequential/dense/MatMul f4 [20, 714]
00000000: c031 24bb 60f3 7e3c 90cf 503c 80a5 aa3d
00000010: 1447 babc 409d c23c 424a af3d f28b a4bd
00000020: 88f0 af3c 6055 563d 1ab2 033d 4802 3e3d
00000030: 6805 d4bc c0c4 a83a 94a0 973c f5cc 0ebd
00000040: a0e2 143b d0f4 8fbb bedb 35bd 00b2 363d
00000050: 3853 9f3c 94b7 a2bd 584d 243c 4643 67bd
00000060: 18cb 1e3c 00fa 5cbc 6f7d 27bd c9bf 9abd
00000070: cc09 2e3d 5438 a03d 1998 a5bd fa7f 943d
00000080: f0f9 e9bc 785a 3d3c c742 b1bd 6800 583d
00000090: 8448 513d f3e9 abbd 9758 1fbd 406f 52bb
000000a0: ec2c 543d e63d 8d3d 3851 57bc f849 4d3c
000000b0: ec1f 703d c499 b13d bf32 a1bd 60cd a2bb
000000c0: 1cbe 47bd e69c b63d 6e07 a5bd 1f4b 3abd
000000d0: 148a 193d 0e2b abbd 34c9 b03c 48b1 34bc
000000e0: e6b1 ae3d 5463 ca3c 83c8 9bbd 30a6 51bc
000000f0: 0085 513d 643a 163d bc65 acbc 9ae9 b73d
00000100: 5080 bc3b 08df 06bc d052 293d e879 663c
00000110: 2246 74bd a021 d83c 9071 873d 4c20 aabc
00000120: 54c7 f3bc b05c 463d 2094 4e3d 0469 953c
00000130: e058 163c 12ea 0fbd f18a 76bd e9f8 8fbd
00000140: a041 053b 647a 3e3d d88e c73c b73a 46bd
00000150: a03a b13c 1f33 b3bd 9cd4 0bbd db49 a9bd
00000160: c028 aaba 18ce 95bd 802b 293b 64e2 94bc
00000170: 922a 9e3d 00a3 c83a 56a0 eabc 34a6 5bbd
00000180: be4f 823d 802e cd3b b0e4 203c 3344 4abd
00000190: c4c3 92bd 608d 3ebb 3e7d b6bd 3ad8 a13d
000001a0: 4be7 8cbd 4900 7cbd 08e1 54bc b6b4 08bd
000001b0: 8c48 d93c 8f2c a2bd c082 a3ba dc95 76bd
000001c0: 16bd 9abd 6c0e a63c 8e89 fdbc f291 863d
000001d0: bcf6 6dbd c8c6 263c 1c5b b0bd 680c 1cbc
000001e0: 2a82 2bbd 602d 083c 7594 37bd fc3c adbd
000001f0: b08f a73d 60a2 50bd 408e 65bb 407e ae3d
00000200: 4057 8a3b fdf2 a1bd e0ed c03b 04b7 f7bc
00000210: c056 c5ba bc37 62bd 0284 0a3d 6ec7 a9bd
00000220: 0007 7c3d 80fd f93a fad6 a03d 4556 b4bd
00000230: ac7b fc3c e0eb 383b 2c3d 803c d740 97bd
00000240: 9403 b93d 0fa3 7fbd 5ebd 853d f8c8 583c
00000250: 26a5 92bd 7c61 9bbc 6999 01bd 69dc 27bd
00000260: d4b6 1a3d f0d9 4c3c b88c 8f3d e396 9bbd
00000270: 7c5d 993d 1ec9 99bd 604e 693d e88d b4bd
00000280: e4f1 a63d 2447 16bd 2829 723d 22d0 aebd
00000290: 98c9 913d 5046 d7bb b8b4 333d 3c65 7ebd
000002a0: 7c44 613d 581e 2abc b0f1 833b 1380 78bd
000002b0: b83d 153d 09d8 99bd 4e97 3fbd fd7e b4bd
000002c0: 20ea fd3b a4e4 0e3d d144 b7bd 3f4c 99bd
000002d0: 2600 a53d a0c2 ae3d d655 8ebd 32c7 863d
000002e0: 34fb 053d 54e4 a93d 5071 9ebb 4c64 27bd
000002f0: 5e39 92bd 7ca7 b63c 301f 93bc ec3b e3bc
00000300: d197 73bd a996 91bd 6003 eabb 2eb4 3abd
00000310: c82b 03bc cc9e b33c 1ca3 4abd 26a2 833d
00000320: 7d76 49bd 533c 59bd 3c00 98bc 5433 88bd
00000330: 0043 823d 38d7 663c 9496 eb3c a45b 54bd
00000340: 0812 ea3c 0ccf 6b3d 3817 083c 2a34 963d
00000350: 8274 85bd e881 1dbd dc76 bebc 2256 923d
00000360: 9919 88bd 9028 06bc 8bff 45bd 3c3c 983c
00000370: d0a9 9ebd 60bd af3b 5831 363d 274f 23bd
00000380: 4c02 3e3d c0b2 e4ba c070 bfbb 70b6 9a3d
00000390: 2717 42bd 1c5e e83c 787b 1b3c b0c3 263c
000003a0: e08d 94bd 1987 8dbd e059 813d 3e10 7bbd
000003b0: 0051 a3bb 00fd 073c 0819 6d3c 3639 86bd
000003c0: 1056 1fbc 3c1d 153d c0a7 883b b06d 82bd
000003d0: 083e 3ebc 1078 e33b 5c87 b83d ff33 b1bd
000003e0: 7a3b af3d dc1c 173d 28c7 70bc c007 533d
000003f0: b8ea 443d 20ad 43bd fa7b acbd 7005 3e3d
-0.0025054067 0.015560955 0.012744799 0.08332348 -0.02273897 0.023756623 0.085590854 -0.08034505
0.021476999 0.052327514 0.032152273 0.046388894 -0.025881484 0.0012876019 0.018509187 -0.03486343
0.0022718087 -0.0043931976 -0.044399016 0.044603348 0.019448861 -0.07945171 0.010028206 -0.05646064
0.009691976 -0.013487339 -0.040891107 -0.07556111 0.04248981 0.07823244 -0.08085651 0.07250972
-0.028561562 0.011557214 -0.08655315 0.052734762 0.051094547 -0.08394232 -0.038902845 -0.0032109767
0.051800653 0.06896572 -0.013141923 0.012529843 0.058624193 0.086719066 -0.07871007 -0.0049683303
-0.048765287 0.08916645 -0.08058058 -0.045481797 0.037485197 -0.083578214 0.021580316 -0.011028595
0.08530025 0.024705566 -0.07606604 -0.01279597 0.05115223 0.03667678 -0.021044604 0.08980103
0.0057526007 -0.008231886 0.04133874 0.014067151 -0.059637196 0.026383221 0.06613457 -0.020767353
-0.029758133 0.048428237 0.05043423 0.018238552 0.009176463 -0.035135336 -0.0601911 -0.07029898
0.0020333305 0.04650344 0.024360105 -0.04839584 0.0216344 -0.08749985 -0.034138307 -0.0826604
-0.0012982115 -0.073147 0.0025813282 -0.018174358 0.077229634 0.0015307367 -0.028640907 -0.0536253
0.06362866 0.0062616467 0.009820148 -0.049381446 -0.071662456 -0.0029075965 -0.08910607 0.0790257
-0.06880053 -0.06152371 -0.012993105 -0.033375464 0.02652385 -0.07918655 -0.001247488 -0.06020151
-0.075555965 0.020270549 -0.03094938 0.065708056 -0.058096632 0.010179229 -0.08611128 -0.009524442
-0.04187218 0.0083115995 -0.044819314 -0.084588975 0.08181703 -0.050936103 -0.0035027415 0.08520174
0.004221827 -0.079076745 0.005887732 -0.030238636 -0.0015055761 -0.055228934 0.0338173 -0.08289991
0.061530113 0.0019072741 0.078535035 -0.08805517 0.03082069 0.0028216764 0.015654169 -0.07385414
0.090338856 -0.062411364 0.065302595 0.013231508 -0.07160406 -0.018967383 -0.031640444 -0.040981684
0.037772015 0.012503132 0.07009262 -0.07597139 0.07488534 -0.07509063 0.05695951 -0.08816129
0.08151606 -0.03668894 0.05912128 -0.08535792 0.07118529 -0.006569661 0.04387352 -0.062108263
0.054996952 -0.010383211 0.004026614 -0.060669016 0.036435813 -0.075119086 -0.046775155 -0.088132836
0.007748857 0.034886017 -0.089486726 -0.07485246 0.08056669 0.085332155 -0.06949966 0.06580962
0.03271027 0.08295503 -0.0048352852 -0.040867135 -0.07139848 0.02229666 -0.017959207 -0.027738534
-0.059470955 -0.07108814 -0.0071415156 -0.04558199 -0.008006044 0.021926306 -0.04947196 0.06427412
-0.049185265 -0.053036045 -0.0185548 -0.06650415 0.063604355 0.014089398 0.028758325 -0.051845208
0.028573051 0.057570502 0.008306317 0.07334168 -0.06516363 -0.038453966 -0.023250036 0.07145335
-0.06645507 -0.008188382 -0.048339408 0.01858341 -0.07747233 0.0053631514 0.04448065 -0.039870407
0.04638891 -0.0017448291 -0.0058422983 0.075543284 -0.04738536 0.028365187 0.009489886 0.0101784915
-0.07253623 -0.069105335 0.063159704 -0.061294787 -0.004984021 0.008300066 0.0144713 -0.06553881
-0.009725109 0.036404833 0.004170388 -0.063685775 -0.011611469 0.006941803 0.09010193 -0.086524956
0.08556266 0.036892757 -0.01469592 0.051521063 0.048075408 -0.047772527 -0.08422084 0.046391904

sequential/dense_1/MatMul f4 [15, 20]
00000000: da9a 293e ad8c b0be c47d fbbd 55ce 91be
00000010: 80fa ce3c 59cb 36be c032 c7bc 727a 03be
00000020: fa70 8abe fe0a 583e 4c05 f5bd a52b 8f3e
00000030: 9061 073d f0bb 81bc 7b72 cabe c070 febb
00000040: e0ba a53d 1cdf d83d 120e 063e 2975 cabe
00000050: 62ff 4d3e 0064 843c 8e2c 083e c9e6 95be
00000060: 0010 a138 e41e 953d ddc0 c3be a4ba fdbd
00000070: 4871 02be b1df a93e a073 5c3c 7ca9 a03d
00000080: 9dc8 d33e da1f 1abe d073 493d fd34 9b3e
00000090: 385e 0ebd fd37 aa3e bc2a aa3d 6903 933e
000000a0: 1319 af3e 0045 0a3c 1118 9ebe 7a04 8bbd
000000b0: 57f1 813e bc44 fe3d debd 583e be33 5b3e
000000c0: edd4 4dbe c472 7ebe c0cf 173c 3036 1d3d
000000d0: 3221 0cbe 09fd 4dbe 4157 59be 9249 313e
000000e0: 8518 d1be 1d2b 48be 5d11 b83e f486 96bd
000000f0: 404c 66bc 6ed4 1abe 2836 1bbe d891 9dbb
00000100: 3d66 d73e 601b 9dbc 248b 93be 8e4a 693e
00000110: 61f1 a0be d956 a13e 8c2c fc3d bca3 85be
00000120: aadc 723e 5812 42bd 605e 28bc 801e 3abd
00000130: faea 17be 6881 23bd 5333 60be 2a60 493e
00000140: 174e c23e 132d b33e ece9 653e 82e2 093c
00000150: 6171 7dbe 89c4 2cbe 1a0d 73be 00ac 17bd
00000160: ef19 adbe 01b0 a1be ae06 053e a082 20bd
00000170: 2d03 873e 46cd 38be 00cc 2a3d 920a 523e
00000180: a8a4 b5be 6f18 bdbe 1ca5 f3bd ec36 b5be
00000190: 9a2f 413e 2cdc eb3d bdd5 df3d d7ac 84be
000001a0: 1a7f fa3b d804 ad3d e15e 793e 8999 7fbe
000001b0: e061 cbbc 33a5 bc3e f012 3e3d 53f2 bc3e
000001c0: 6f4c a4be caf8 68be 2f29 733e 7e12 8abe
000001d0: a49c 71be 53a6 853e 743f f63d 616d 103e
000001e0: c297 373e 1f2c ad3e 5c01 26be 01ca 6dbe
000001f0: c8d8 743d 8cec 82be 481a 44bd 359b a33e
00000200: 680e 043d 6b58 c43e df88 a93e d632 723e
00000210: 118d b9be e666 333e 806d 53be f698 123e
00000220: a969 a23e bd89 a9be 529d 493e 2a03 453e
00000230: f24b 39be 1ef2 713e 970c e23c dd5b f43d
00000240: dfe7 573b 370a b43e 49ae 8f3e 2289 133e
00000250: 10ae 55bd 0034 7fba 3c1e d73d 7cc5 ba3d
00000260: 2ae3 493e 43bb ce3e 2afd 00be fc3f 6cbe
00000270: b0e5 a83c e7d0 9b3e 1615 753e 8830 c73c
00000280: 1098 43bd f20d 7e3e 50d8 c03e 41eb aa3e
00000290: 9fed 323e a3b7 b5be 5a44 b7be da3b 1e3e
000002a0: 9e02 113e 1b6c 823e b939 a4be 327a 51be
000002b0: 370c b83e 14e1 c6bd 869e 90be 359c 593d
000002c0: 648d 9abe d1df 823e 32a8 0b3e bbc6 c2be
000002d0: 20a5 adbd a676 683e 2ccf 59bd 82d7 3a3e
000002e0: 4a4e 423d b3f6 cc3e efa0 c8be 60de 2dbd
000002f0: f98b d3be 02f7 6e3e a19b 63be ed9b 893e
00000300: 007c 79bb b5b5 9e3e 16a1 bcbe e627 7e3e
00000310: 2720 b8be 1807 40bd fb99 72be 26fa 0a3e
00000320: 4aea 353e 6e75 27be 4639 b2be 5fc9 87be
00000330: 2c6c 8dbd 6050 7e3d f239 093e b285 183e
00000340: dd13 c43e fecd 12be 3c1c 00be 804c f53c
00000350: 5cd6 eabd 4ef9 1abe 7eb7 b2be 6e7e b4be
00000360: 8c02 21be 9fdd a9be f11d 813e be77 0d3e
00000370: a47f d7bd ac25 a73d 9ccf ea3c 35c7 84bd
00000380: 20ad 50be c975 a83e 0d6c 723e 029e 98be
00000390: 84db e53d 81b5 91be 8434 edbd 3cac 9a3d
000003a0: 9ed6 2a3e 8635 a5be 712f 8ebe c240 acbe
000003b0: ec3b 26be 286b abbd feb3 0c3e f9a9 953e
000003c0: 9f6c 9f3e e13c 9b3e e8b6 76be a408 efbd
000003d0: db85 cdbe 10cc 9ebe 39ec 9f3e a063 f43c
000003e0: 9ac5 0c3e d046 9dbc 884e 99bd 405b dc3b
000003f0: 6232 223e 5a23 04be 6602 78be 9a62 5a3e
0.16562977 -0.34482327 -0.12279847 -0.2847773 0.025265932 -0.17851008 -0.024316192 -0.12839678
-0.2703932 0.21097943 -0.11963901 0.27962986 0.033052027 -0.015836686 -0.39540467 -0.0077649057
0.08092284 0.1058943 0.13091305 -0.3954251 0.20116952 0.016160965 0.13298246 -0.29277638
7.6800585e-05 0.072812825 -0.3823308 -0.123891145 -0.12738526 0.33178475 0.0134553015 0.078448266
0.41363993 -0.15051213 0.049182713 0.30313864 -0.034757823 0.3324584 0.08308932 0.2871354
0.34198818 0.008439302 -0.30877736 -0.06787963 0.2537944 0.12415454 0.21166179 0.21406457
-0.20100756 -0.24848467 0.00926584 0.038381755 -0.13684538 -0.20116057 -0.21224691 0.17313221
-0.4083902 -0.19547696 0.35950747 -0.07349959 -0.014056265 -0.15120098 -0.15157378 -0.0048086457
0.4207019 -0.019178092 -0.28817093 0.22782347 -0.31434157 0.31511572 0.12313184 -0.26101482
0.23716989 -0.047380775 -0.010276407 -0.045439243 -0.1483573 -0.039918333 -0.21894579 0.1966559
0.37950203 0.34995326 0.22452515 0.00841582 -0.24750282 -0.16871847 -0.23735467 -0.037029266
-0.33808848 -0.31579593 0.1299083 -0.039187074 0.2636961 -0.18047056 0.041698456 0.20511845
-0.35477185 -0.36932704 -0.118967265 -0.35393465 0.18865815 0.11516604 0.10929439 -0.25913116
0.007644546 0.084481895 0.243526 -0.24960913 -0.024826944 0.36844787 0.04640478 0.3690363
-0.32089564 -0.22751155 0.23746179 -0.26967233 -0.2359491 0.26103458 0.120238215 0.14104225
0.17928985 0.33822724 -0.16211456 -0.2322159 0.05977705 -0.25571096 -0.047876626 0.3195435
0.0322403 0.38348708 0.33112237 0.23652205 -0.36240438 0.17519721 -0.2064724 0.14316162
0.31721237 -0.33112898 0.19688919 0.19239488 -0.18095377 0.23627517 0.027593894 0.11931584
0.0032944602 0.35164043 0.28062657 0.14407781 -0.052167952 -0.00097352266 0.105038136 0.091196984
0.19715562 0.40377244 -0.12596574 -0.23071283 0.020617336 0.30432817 0.23933825 0.024315134
-0.04775244 0.24810007 0.37665033 0.3338261 0.17473458 -0.35491666 -0.35794336 0.15452519
0.14161155 0.25473103 -0.3207529 -0.2045677 0.3594682 -0.09710899 -0.28245944 0.053127486
-0.30185997 0.25561383 0.1363838 -0.38042244 -0.08478761 0.22701511 -0.05317609 0.18246272
0.047437944 0.40031967 -0.39185283 -0.0424484 -0.41317728 0.23336414 -0.22227336 0.26876774
-0.0038068295 0.30998006 -0.3684165 0.24819908 -0.3596203 -0.046881765 -0.23691551 0.13571987
0.17765155 -0.1635339 -0.3480932 -0.2652082 -0.06905398 0.06208837 0.1340101 0.1489475
0.38296404 -0.14336392 -0.1251077 0.029943705 -0.11466667 -0.15134165 -0.34905618 -0.35252708
-0.15723628 -0.33176896 0.25218156 0.1381521 -0.105223924 0.08161482 0.028663449 -0.06483308
-0.20378542 0.32902363 0.2367403 -0.2980805 0.1122351 -0.2845879 -0.11582282 0.07552382
0.16683432 -0.32267398 -0.2777057 -0.33643156 -0.16233796 -0.08370048 0.13740537 0.2923124
0.3113756 0.30319884 -0.2409321 -0.1167157 -0.40141186 -0.31015062 0.3123491 0.029832661
0.13747254 -0.019198805 -0.07485682 0.006724745 0.15839532 -0.1290411 -0.24219665 0.21326676

sequential/dense_2/MatMul f4 [2, 15]
00000000: 24e4 643e 783e 903e 0a38 8abe eab3 a7be
00000010: a699 ef3e 58fa 083f 48d4 06be b407 813d
00000020: 5de6 aa3e 2bc4 b93e 8a2a 963e 192c 0bbf
00000030: c2b7 d2be e622 c9be 97f7 ef3e 8cc6 3c3e
00000040: c062 a33e 405c d1be 8890 2bbe ad2a ed3e
00000050: 7769 a33e e29d ad3e 0f45 07be a3ba 243e
00000060: 8000 0ebd e838 bf3d a853 163d 7cba 1f3e
00000070: 62f3 abbe 4321 0a3f
0.22352654 0.2817266 -0.2699588 -0.3275445 0.46796912 0.53506994 -0.13166916 0.063002974
0.33378878 0.36282477 0.2932933 -0.5436416 -0.4115582 -0.39284438 0.46868584 0.18435115
0.31911278 -0.40890694 -0.16754353 0.46321622 0.319164 0.33909518 -0.13209938 0.16086821
-0.034668446 0.09337026 0.036700875 0.15598482 -0.33584124 0.53957003
