chewvsheadmovement_model.tflite (tflite, 148012 bytes, 6 tensors)

dense_2/bias f4 [2]
00000000: 5c29 91bf 5d29 913f
-1.1340747 1.1340748

dense_1/bias f4 [15]
00000000: 23af dabb 7d55 92bb 31c6 2abc 98be 953f
00000010: d016 63bb e5ff 67bb 2ec3 18bc f447 90bb
00000020: 7476 26bc d85d 6bbb fcb1 6fba 38b4 06bc
00000030: 1c3e 4fbb f38e b5bb f2b1 80bb
-0.00667371 -0.0044657574 -0.010423229 1.169879 -0.0034651048 -0.0035400328 -0.009323878 -0.0044031087
-0.010160077 -0.003591409 -0.0009143648 -0.008221678 -0.0031622713 -0.0055407225 -0.0039274627

dense/bias f4 [50]
00000000: 0000 0000 f43d 4fbb eb7c 3fbb 0a2d a4ba
00000010: dc4e b1ba 8c84 edba 0000 0000 cf3d 4fbb
00000020: 0000 0000 ae3d 4fbb 0000 0000 0000 0000
00000030: 3cae bebb 913b 4fbb 0000 0000 d03d 4fbb
00000040: 473d 4fbb 0000 0000 0000 0000 e139 4fbb
00000050: 013c 4fbb 4023 a0bb 0000 0000 f13d 4fbb
00000060: 0000 0000 c23b 4fbb 0000 0000 0000 0000
00000070: 0000 0000 0000 0000 82a9 74ba 0000 0000
00000080: 0000 0000 0000 0000 0000 0000 0000 0000
00000090: 0000 0000 0000 0000 791f e8ba d567 7abb
000000a0: 4bb7 b8ba 0000 0000 b03b 4fbb 0000 0000
000000b0: b045 65ba 0000 0000 ba3d 4fbb 0000 0000
000000c0: 0000 0000 8cfd babb
0.0 -0.003162262 -0.0029218744 -0.001252563 -0.001352753 -0.0018121167 0.0 -0.0031622534
0.0 -0.0031622457 0.0 0.0 -0.00581911 -0.0031621198 0.0 -0.0031622536
-0.0031622218 0.0 0.0 -0.0031620192 -0.0031621458 -0.0048870146 0.0 -0.0031622613
0.0 -0.0031621312 0.0 0.0 0.0 0.0 -0.000933312 0.0
0.0 0.0 0.0 0.0 0.0 0.0 -0.0017709575 -0.0038208861
-0.0014092711 0.0 -0.003162127 0.0 -0.0008746041 0.0 -0.0031622485 0.0
0.0 -0.0057064947

sequential/dense/MatMul f4 [50, 714]
00000000: 40f0 20bb 8055 a2bc 4cc1 be3c 6c7e a3bd
00000010: 8a15 013d 5296 a33d 06f8 0bbd b23c 1bbd
00000020: 642a 9c3c 0c37 9c3d 3098 58bc 6046 d93c
00000030: 754f a2bd 58e5 6f3c dcb7 533d 496c 5fbd
00000040: ccf7 4f3d 6ad7 99bd 2c14 ae3d 9f79 1cbd
00000050: a7c1 a1bd b279 a2bd 001c 31bc 8273 19bd
00000060: 5c5d 4d3d 7695 4cbd 5832 04bc 40a5 b53b
00000070: fcc1 843d c3fd 2ebd 8872 923c 8002 793d
00000080: 209d 023b 8e14 a2bd 68a5 afbd 5c57 cdbc
00000090: c0d0 253b 340a 933c 254b 57bd a8c9 963d
000000a0: b6da 8fbd f0bc 78bd ff00 77bd b009 123c
000000b0: c044 a0ba ebb0 65bd cae6 833d 6c88 ff3c
000000c0: 801b 28bd 0f63 a9bd 3d7f 4cbd 80cc 79bb
000000d0: 801a bd3b 223e 62bd 8a69 a6bd 48ba d2bc
000000e0: f079 f73c bef4 53bd 5091 7abd 6818 473c
000000f0: fe0e febc 209d efbc 0881 98bd f059 51bc
00000100: 64a2 a33d ea01 42bd 7001 d3bb 046f 523d
00000110: e053 813b 428f 6fbd b2ea b0bd 18d8 343d
00000120: 84ba a13d 3c81 253d de85 a63d 3826 7e3d
00000130: 5434 90bc 4c68 abbd 5f00 37bd 962f b23d
00000140: c177 45bd 0927 8dbd 5843 623c f931 61bd
00000150: 5864 053c 6cf4 21bd 406f 8f3d ff49 0fbd
00000160: 5b84 9bbd c091 a43a c029 e0ba ba58 80bd
00000170: 2866 183c f827 8c3c b615 76bd aada 0d3d
00000180: 302d 1cbc a8bf ac3c 50f5 de3b 004a dfbb
00000190: d000 6cbc fc11 96bc cc40 3a3d d82b 993c
000001a0: 2028 47bb fcfa 943d 6003 843d b8f7 e23c
000001b0: 3413 183d 0baf 34bd a8a2 4c3c 54fa 593d
000001c0: 8f2c 6cbd 3c06 dc3c 925f 833d a0a1 0fbc
000001d0: cb72 a3bd b6b8 97bd fe04 9e3d 4298 9f3d
000001e0: 1948 a4bd 50f2 903d 8cba 74bd 28d1 623d
000001f0: 18da 63bc 38f5 023d 48e0 20bc b9d7 adbd
00000200: 6a90 66bd 50d4 2c3d 7a12 b23d 5230 b13d
00000210: 96d0 fabc 283f 813d 805a 17bb b66b 96bd
00000220: 1c8e abbc 60d8 54bc 1835 c8bc eaaf 05bd
00000230: 40ea 5f3c 98ad af3d deee 94bd 0473 cd3c
00000240: cb16 13bd 88bf 75bd 305d 4cbc d4dd 61bd
00000250: a0e2 dabb d0ca 75bc 6023 dbbc fc6f a9bd
00000260: 2185 b0bd e497 b23d 4401 9a3d c009 d7ba
00000270: 4e4c 963d 9ded 0abd a025 59bc ea2b 4fbd
00000280: 6862 953d 18b2 40bd 7eda f5bc 6d06 2cbd
00000290: 60f2 2b3d 986c abbd be4f 913d 009a 603b
000002a0: 4433 0e3d 807b 21bd c4ae 9f3d f013 1b3d
000002b0: 54ec 2a3d 28b3 1bbc 00d5 07ba 9044 603d
000002c0: e47e b03d 450a 42bd d0f9 923c b046 5ebd
000002d0: e5ae 06bd ab90 31bd 88a9 903c 7c6b 9c3c
000002e0: b4cf c93c f0e0 6b3c 7cda 1b3d f8ec 08bc
000002f0: 6c37 3f3d d2fb 6bbd d240 95bd 60a8 6d3b
00000300: d419 91bd 9615 833d b860 453d 2884 203d
00000310: 70b3 9a3d 8c6c c3bc 762c 84bd 44f1 0e3d
00000320: 1773 59bd a0e9 5fbc adbe aebd 2fd8 92bd
00000330: ac63 d1bc b8a0 033d 888e 573c 8eb1 49bd
00000340: d2d2 36bd 784d a13c 7088 e63b aa1e 983d
00000350: 70bc 4b3d f4b0 c3bc 26ac 4bbd 212e 06bd
00000360: 7229 aa3d 0025 2a3d 10f0 bf3c c827 663c
00000370: c8b0 8c3d 3cd4 593d 3ec0 843d c4e7 553d
00000380: aef3 0f3d 091a 88bd 8415 a63d 9336 47bd
00000390: 8037 10ba 009e c1bc 20c1 89bd d081 a6bc
000003a0: cae6 4cbd 3429 13bd 7d1a 60bd 802b 6a3b
000003b0: 72d0 843d 5448 973d f8df 503d 6c37 173d
000003c0: 5839 0c3c cc66 b43d c09d 8ebd adc3 86bd
000003d0: 904f e13b b8aa 683d e098 4ebc 30c9 3b3c
000003e0: 90ce 413d 4ec9 a43d ac58 ed3c b19d 5cbd
000003f0: ac69 763d ec72 b33d 807b 33ba fc88 243d
-0.0024557263 -0.01981616 0.02328553 -0.079830974 0.031514682 0.07987656 -0.03417208 -0.03789968
0.019063182 0.07627687 -0.013219878 0.026522815 -0.079253115 0.014642082 0.051689014 -0.05454663
0.050773427 -0.0751179 0.08499941 -0.038201924 -0.078982644 -0.07933368 -0.010809898 -0.037463672
0.050137863 -0.049947225 -0.0080686435 0.005543381 0.06482312 -0.042722475 0.017876878 0.0607934
0.001993008 -0.07914077 -0.085764706 -0.02506607 0.0025301427 0.017949201 -0.052561898 0.073626816
-0.07024138 -0.06072706 -0.060303684 0.0089134425 -0.001222752 -0.056076925 0.06440504 0.03119298
-0.04104185 -0.08270847 -0.04992603 -0.0038116276 0.0057709813 -0.055235036 -0.08125599 -0.025723591
0.030209512 -0.051747076 -0.061173737 0.012151815 -0.031013008 -0.029249728 -0.07446486 -0.01277779
0.07989958 -0.047365107 -0.0064393803 0.051375404 0.0039467663 -0.05848623 -0.086385146 0.044151396
0.07896903 0.04040645 0.08131002 0.062048167 -0.017603077 -0.083695024 -0.04467809 0.087004825
-0.04820991 -0.06892211 0.013810001 -0.0549793 0.0081416 -0.03953974 0.07003641 -0.034982678
-0.07593604 0.0012555644 -0.0017102286 -0.06266923 0.0093017 0.017108902 -0.0600793 0.034632362
-0.009532258 0.021087483 0.006804146 -0.0068142414 -0.014404491 -0.018319122 0.04547195 0.018697664
-0.0030388907 0.07274434 0.06445956 0.027706012 0.03712769 -0.044112246 0.012489952 0.053217247
-0.057659682 0.026858442 0.06414713 -0.008766562 -0.079808794 -0.07408278 0.07715796 0.07792713
-0.08021564 0.070774674 -0.059748217 0.05537525 -0.013906978 0.03197214 -0.009819098 -0.084884115
-0.056290068 0.042194664 0.086949304 0.086517945 -0.03061704 0.06310874 -0.0023094714 -0.07344763
-0.020941786 -0.012991041 -0.02443938 -0.032638468 0.013666689 0.08578032 -0.07272123 0.025079258
-0.03591041 -0.05999711 -0.0124733895 -0.055143192 -0.006679848 -0.015001968 -0.026750267 -0.082733124
-0.08619142 0.08720377 0.07519773 -0.0016406104 0.07338773 -0.033918012 -0.013253599 -0.05057899
0.0729416 -0.047044843 -0.030011412 -0.041998316 0.041979194 -0.08370322 0.07095288 0.0034271479
0.03471686 -0.03942442 0.07797006 0.03786081 0.041729286 -0.009503163 -0.0005181581 0.054752886
0.086179525 -0.047373075 0.017941386 -0.05426663 -0.032881636 -0.043350857 0.017658964 0.019094221
0.024635173 0.014396891 0.03805016 -0.008357279 0.046683714 -0.0576132 -0.07287754 0.003626369
-0.070850044 0.064006016 0.04818794 0.039188534 0.07553756 -0.02385547 -0.06453793 0.034898058
-0.053088274 -0.01366654 -0.08532462 -0.0717014 -0.025560223 0.032135695 0.013156541 -0.049241595
-0.044634648 0.01969026 0.0070353076 0.07427724 0.049740255 -0.023888089 -0.04972472 -0.032758836
0.08308686 0.041539192 0.0234299 0.0140475705 0.06869656 0.053180918 0.0648198 0.052222982
0.0351445 -0.06645591 0.081095725 -0.04863603 -0.0005501434 -0.02363491 -0.06726289 -0.020325571
-0.050024785 -0.035927966 -0.05471276 0.0035731494 0.0648507 0.07386842 0.050994843 0.03691809
0.008558594 0.088086694 -0.06963682 -0.06580291 0.0068759397 0.056803435 -0.01260969 0.011461541
0.047316134 0.08046208 0.028972946 -0.053861324 0.06015937 0.08762154 -0.0006846711 0.0401697

sequential/dense_1/MatMul f4 [15, 50]
00000000: 74e9 f83d 4b8d 81be 429b bcbd 0516 5ebe
00000010: 90e1 47b9 ca83 03be f02b 92bc 18f5 c0bd
00000020: 222d 4bbe 3c88 1e3e cacb b3bd e81d 523e
00000030: 84fc c83c e065 3ebc 3d8e 94be 40b5 babb
00000040: a039 733d e423 9f3d 24bd c43d 3490 94be
00000050: d63c 833e 56a4 713f fe2f 403e 0689 963e
00000060: e8af 663e 8e90 e5bd 3b74 0abe 7452 573e
00000070: ccc2 543e af76 82be 57a9 1c3e 50cd fa3c
00000080: 0508 98be f0e3 983e 0c28 8a3e ba20 8d3e
00000090: 1fa2 30be ee25 043e aa0f 70be 9e9d f2bd
000000a0: 9ef9 1f3e 7e23 2a3e 3892 973d f87f 4d3d
000000b0: f805 8a3e f8d2 49be b822 a53d 28ad 6d3e
000000c0: 285e 0b3e f027 6fbe 3229 173e 3e7d 0e3c
000000d0: 973f c33d c9d8 5ebe a90c 4dbb 09a6 403d
000000e0: caa4 8fbe 85a9 c0bd f06f bfbd cb11 763e
000000f0: 60c4 213c 90c9 6b3d a944 993e cda0 e8bd
00000100: 60d3 133d 258b 603e 08d8 eabc 10d0 793e
00000110: a0bc 793d c084 543e b4d2 2c3e b58e 57be
00000120: b840 08be 751c 193e 2089 6c3e 776f 6d3d
00000130: 24d4 29be 0090 7abb 3865 1c3e 600c 793c
00000140: 1b17 823d f031 c13c 2069 f7bc b8fe 853e
00000150: 8075 093c b80c 833d 5007 cf3c 0bcf 45be
00000160: 1f54 45be 3342 5b3e 01ee 883e cdb9 1fbe
00000170: a277 4bbe 9091 6c3d 5ef2 8b3e ce95 963e
00000180: 7d9c bc3d 881a 32bd 803c b93c 55aa 9cbc
00000190: 9c7c 803e c0ec ca3b ae62 79be 01cd 95bd
000001a0: d23a 223e d358 bb3d 32ab 1c3e b0d9 203e
000001b0: 090a 17be c8b6 3abe 80cc de3b 40b9 e63c
000001c0: 487d d0bd 7727 17be 0c7c 1fbe e617 023e
000001d0: 326f 99be 2ae2 12be a011 873e d8e9 5cbd
000001e0: ea58 2dbe 0882 4dbd eabb 1d3e c84b ef3d
000001f0: 5400 87be fb80 7fbe c8d1 3d3d d054 5dbe
00000200: e4d1 7e3e 9ad2 98bd b128 3a3e a8ee 123e
00000210: 94fb f93d 4005 543e 846a 853e 6231 7bbe
00000220: 9ebb 40be 4c8b e33d 6b8a 583e ff2d 62be
00000230: febe 823d 68f4 733d 0086 ecbc 4887 10bd
00000240: 4d92 103e d489 c83d 9069 833e 8244 8f3e
00000250: 7e2f 163e 6745 883e 20fe 28bc 49b4 e9bd
00000260: 9e31 0ebe 0c9f 56bb 38c8 993e e3c9 90bc
00000270: 829c 55be 6af3 273e 1733 6cbe 188b 693e
00000280: 8c0b b93d 1921 44be 4446 303e db57 1bbd
00000290: 0019 f7bb d286 15bd 476e e5bd e0f5 efbc
000002a0: a784 24be fb87 103e f605 82be f649 0cbf
000002b0: f40b d83d 45a6 61be 629b 79be 3a40 803e
000002c0: cf4d 43be de62 413e 80ac aabd 58e4 58be
000002d0: 3020 2ebc 6776 06be 783b 863e 2287 60be
000002e0: 2e0e a6bd 9085 e23d 40f9 913d c025 11bc
000002f0: e1b7 a73d 31af 32bd 4a94 3abe 30b5 7d3d
00000300: 01d7 fb3d d85c 62be e06d c83d b091 e2bc
00000310: 487b 7cbb 6e3f 3e3e 403c bcbc 59c3 4c3d
00000320: b694 8e3e 38dc 813e 90ce 1c3e 6da9 a73d
00000330: 4f6f 3fbe 854c 02be c5c4 2fbe 7f7f f8bc
00000340: 120b 7ebe b887 70be 9c3a c33d 8090 ebbc
00000350: 16d1 413e 88d6 0abe 50a9 fa3c d9e3 163e
00000360: a2e8 86be 14c2 8abe 5ac9 b2bd 1c98 86be
00000370: 4222 bb3d e828 d439 8209 813e dfe5 8b3e
00000380: 28f7 c63d 7df7 f63c 8013 e1bc 0695 cbbd
00000390: d212 333e 70c6 313e 6a8d 92be a0de 40bd
000003a0: 1809 61be 2a76 6dbe 2878 823e 258b 5ebe
000003b0: 3074 f23c 5c22 04be de0c 31be acc7 94bd
000003c0: cafd ab3d 9e1d 8f3e 96a2 093d 8c24 65bd
000003d0: 3689 75bc 0552 8dbe d8a2 cc3d a8b6 6f3e
000003e0: c6f0 c1bd 1774 613e 7ec2 0d3e f012 ad3d
000003f0: 3312 953d 63cf 46be d931 23bc 41f8 703d
0.12153903 -0.2530311 -0.092093006 -0.21688087 -0.00019062147 -0.12843242 -0.017843217 -0.09421748
-0.19841436 0.15481657 -0.08779104 0.20519221 0.024534471 -0.011620969 -0.2901477 -0.005697876
0.059381127 0.077705175 0.09606388 -0.29016268 0.25632352 0.9439138 0.18768308 0.29401416
0.2252804 -0.11209212 -0.13520901 0.21027547 0.20777434 -0.25481173 0.15298973 0.030615479
-0.29693618 0.29861403 0.26983678 0.2756403 -0.17249344 0.12905094 -0.23443475 -0.11846469
0.15622565 0.16615102 0.07400936 0.05017087 0.2695768 -0.19709384 0.08063263 0.23210585
0.13610137 -0.23355079 0.14761809 0.008696852 0.09533613 -0.21762384 -0.0031288064 0.047033343
-0.28055412 -0.09407333 -0.09347522 0.24030225 0.00987348 0.05756527 0.29935196 -0.11358795
0.036090255 0.2192808 -0.028667465 0.24395776 0.060970902 0.20753765 0.16877252 -0.21050532
-0.13305938 0.14952262 0.23099184 0.05796763 -0.16584831 -0.0038232803 0.15272987 0.015200704
0.06352063 0.023583382 -0.030201495 0.26170897 0.008389831 0.0639891 0.025272042 -0.19317262
-0.19270371 0.21411972 0.26744083 -0.15598221 -0.19869855 0.057756007 0.2733335 0.29411167
0.09209535 -0.043482333 0.022611856 -0.01912419 0.2509507 0.0061927736 -0.2435405 -0.07314492
0.1584275 0.09147801 0.15299681 0.15708041 -0.14749922 -0.18233788 0.0067992806 0.028164506
-0.101801455 -0.14761148 -0.15574664 0.12704429 -0.29967648 -0.14344087 0.26380634 -0.05393395
-0.1692845 -0.050172836 0.15403715 0.11684376 -0.26367438 -0.24951546 0.04634264 -0.21614385
0.24884754 -0.07462044 0.18179585 0.14348853 0.12206188 0.20705128 0.26057827 -0.24530557
-0.1882157 0.11110553 0.21146552 -0.22087859 0.06384085 0.059559256 -0.02887249 -0.035285264
0.1411831 0.09791914 0.25666475 0.27981955 0.14666554 0.2661545 -0.010314494 -0.1141134
-0.13886115 -0.0032748608 0.30035567 -0.017674392 -0.20860484 0.16401449 -0.23066364 0.22806966
0.090354055 -0.19153251 0.17214304 -0.037925582 -0.007540822 -0.036505528 -0.11202674 -0.029292047
-0.16066228 0.14114372 -0.25395173 -0.54800355 0.10549155 -0.22036083 -0.2437568 0.25049
-0.1907265 0.18885371 -0.08333683 -0.21180856 -0.010627791 -0.13131104 0.26217246 -0.21926549
-0.08108173 0.11060631 0.07127619 -0.008859098 0.08189369 -0.043624107 -0.1822063 0.061940372
0.12296868 -0.2210573 0.09786582 -0.02765736 -0.003852563 0.18578884 -0.022977948 0.049990986
0.27847832 0.25363326 0.15313172 0.08186612 -0.18694805 -0.12724502 -0.17164905 -0.030334232
-0.2480891 -0.23489273 0.09532663 -0.028755426 0.18927416 -0.135584 0.030598313 0.14735354
-0.2634936 -0.27101195 -0.08729811 -0.26287925 0.091373935 0.0004046627 0.25202566 0.27323815
0.0971511 0.030147308 -0.027475119 -0.09940533 0.17487648 0.17360854 -0.28623515 -0.04708731
-0.21976125 -0.23189607 0.25482297 -0.21732767 0.029596418 -0.12903732 -0.17290065 -0.07264647
0.08398016 0.27952284 0.03360232 -0.055943057 -0.014986327 -0.27601638 0.099919975 0.23409522
-0.09469752 0.22016941 0.13843724 0.08450878 0.07278862 -0.19415049 -0.009960615 0.058830503

sequential/dense_2/MatMul f4 [2, 15]
00000000: 16f0 6f3f 3280 953e 6402 9abe ec65 e9bf
00000010: aa81 ed3e 8aff 9b3f 624a ffbd 8d68 4a3f
00000020: 325f a43e e856 8a3f 9597 993e b6b7 0abf
00000030: 4619 d1be 3bac b63e 2ff5 943f 7585 07bf
00000040: 0621 9e3e e791 c1be e706 aa3f c342 ef3e
00000050: 4fa0 babe 5606 aa3e e018 5cbf e4c8 313e
00000060: beab 40bf bc84 b13d 6d0d 0f3d 847d 1c3e
00000070: 96f0 8abf aa35 1fbe
0.9372572 0.29199368 -0.3007995 -1.8234229 0.46387988 1.2187359 -0.12465359 0.7906578
0.32103878 1.0807772 0.2999846 -0.5418657 -0.40839595 0.35678276 1.1637324 -0.52938014
0.3088457 -0.37806627 1.3283356 0.46730623 -0.3645043 0.3320796 -0.85975456 0.1736179
-0.7526206 0.08667895 0.034924913 0.15282255 -1.0854671 -0.15547815
