eatingclafssifier-Non-Optimised/non_optimised_model.tflite (tflite, 60444 bytes, 6 tensors)

dense_5/bias f4 [2]
00000000: da88 273d c888 27bd
0.040901996 -0.04090193

dense_4/bias f4 [15]
00000000: 3cf2 8cba 6485 8dba 5a23 8fba 12e1 033d
00000010: a48d 51bb f079 ceb9 f434 19bc b9ae 27bc
00000020: ec06 3cbb 0307 8dba 0000 0000 759f 6dbb
00000030: 9405 1fbc d7cc 8cba 26b7 34bc
-0.0010753344 -0.00107972 -0.001092057 0.032197066 -0.0031975294 -0.00039382232 -0.009351004 -0.010234528
-0.002869065 -0.0010759536 0.0 -0.0036258374 -0.00970592 -0.0010742199 -0.011029994

dense_3/bias f4 [20]
00000000: 0000 0000 0000 0000 f857 8ebb 95e0 21bb
00000010: 6833 9cbb 0000 0000 0000 0000 76ff 17bb
00000020: 0000 0000 0000 0000 5c70 86bb 0000 0000
00000030: 953d 4fbb 0000 0000 0000 0000 0000 0000
00000040: 0000 0000 5b38 89bb 0000 0000 c439 4fbb
0.0 0.0 -0.004343983 -0.0024700512 -0.0047668703 0.0 0.0 -0.0023193038
0.0 0.0 -0.0041027498 0.0 -0.00316224 0.0 0.0 0.0
0.0 -0.0041876263 0.0 -0.0031620124

sequential_1/dense_3/MatMul f4 [20, 714]
00000000: c259 f5bc 58c8 b0bc dcfb 6b3d 6877 46bd
00000010: 5f9c 41bd 38df 4f3d a022 27bc 0c61 543d
00000020: 1829 5bbd b091 513c bc58 91bc 3814 923d
00000030: 14ce 253d 2498 a83d c88f 823d 307f f73c
00000040: 0c64 a1bd d8ff 5fbc 40be 2fbb 002a 85bd
00000050: 64d6 793d 58f5 973d 1c4b d3bc 6862 9f3c
00000060: b890 f13c 9cd0 0bbd 78fc fa3c ac50 643d
00000070: 60a4 38bd 300d c13c 27fe aabd 04d3 fdbc
00000080: 9041 cc3c 9824 7ebd e2bb 903d c618 b53d
00000090: 4884 733d 2823 d43c 6069 92bd 0cb3 373d
000000a0: 582c a43d 58de 2f3d d036 263d 6413 fdbc
000000b0: e80a 843c 0c60 b5bd 3445 b8bd eca1 fb3c
000000c0: 0028 e43b 32a6 af3d c8ac 6c3d b498 a2bd
000000d0: 4eb6 7abd a40e 853d 633a 26bd 60e9 bcbc
000000e0: a65e 8dbd f0ec 8dbd 40db 47bb 6eb8 84bd
000000f0: c122 60bd 4e2f b1bd 62f6 83bd 1847 683d
00000100: ac9f 9c3d 3000 813c 8032 86bd f83e 133c
00000110: 4c1c c73c 249e 253d 886b 6f3d 9af9 47bd
00000120: 40da df3b a455 353d a0c5 933b be85 63bd
00000130: a49f b33d ac6e a3bd a84c 5ebd fe06 8bbd
00000140: c2bf 873d fa61 4ebd dccc 173d f00e 3d3d
00000150: 25e3 26bd c82d 093c 2624 95bd 53ab 06bd
00000160: 3c0c 263d 2624 1dbd e058 09bd f4ad 4b3d
00000170: 0829 563d 9807 a3bc d4d4 623d 604b 593d
00000180: d8d7 9f3d 9c7d 153d 8a3a 9abd 2222 a0bd
00000190: b461 a9bd e0d0 29bc 9287 a73d 8c41 d93c
000001a0: 9df3 62bd 5ee7 0b3d d030 01bc 60d0 ec3b
000001b0: c8f9 573d 8468 c8bc 50f9 1bbd 68b7 5d3c
000001c0: c838 483d 041a 5b3d e284 23bd 6ced 593d
000001d0: 00a4 69bd 4026 cb3c a951 8bbd 4b10 6bbd
000001e0: e67a 8abd 641c a6bc 20fe e33c 2895 3fbd
000001f0: 109b c03b 0403 703d 23f2 8ebd 9087 a13c
00000200: 60fd 2cbb 6c4d 033d 1722 afbd 383f 2dbd
00000210: 9c0b 683d 7609 84bd cc6e 773d 1cb7 f43c
00000220: 446b 7d3d 047e 5c3d c76e 51bd de33 a5bd
00000230: 700c df3b 1042 bbbc 4706 2abd 500a 963c
00000240: 82b5 8f3d 6051 583c 5a54 83bd 40ed 353b
00000250: 27c7 a7bd 318b 53bd 17fc 23bd 5d27 20bd
00000260: 6025 af3d 50d0 233d 895a 5ebd a85f 523d
00000270: 9883 903c 41ec 1dbd 476a 36bd fad2 853d
00000280: f2b9 033d 14c2 913d 0820 413d 7458 fa3c
00000290: 1ca1 9c3d 5813 a2bc 589a a7bc 9c22 493d
000002a0: a81e ed3c 3092 9c3d 8887 73bc 9cc2 7e3d
000002b0: f301 4bbd a017 7ebb 303b aebd 741b bd3c
000002c0: 88c5 aabd e414 ab3d 389a 113d b7ba 29bd
000002d0: 78aa 8b3d 5640 95bd b469 7d3d 0a78 b73d
000002e0: 9942 acbd 30b6 7cbc 108b 10bc bc61 c5bc
000002f0: d0c5 103d aabd 843d 50f9 0f3d 24f3 aabc
00000300: cd5e 9dbd 1840 89bd 7cd5 e13c 50bc 8abb
00000310: 84a9 7f3d 97c0 32bd 3311 8dbd 9c9d 253d
00000320: f015 8a3b fc1d 263d 68f3 9a3c 2d86 2fbd
00000330: a8e8 3e3c 809e 4d3d 306b d4bb b4a8 623d
00000340: 6079 573d 6428 d43c 5ff8 acbd 2c16 913d
00000350: de40 b63d 54b7 2b3d 9ac4 a73d c36f b7bd
00000360: 5105 02bd c4ad 8cbc 38ad 8bbc 305a 103d
00000370: 70c2 713d 3c7f 773d 3103 93bd 246f 913d
00000380: 37ce 03bd 4e6f b83d 8c5b 943c 3c5d bbbc
00000390: f281 40bd 02df 953d d82d a53c 188a 113c
000003a0: 8e58 a63d 96bc 83bd c075 ee3a ae90 48bd
000003b0: 76a5 013d 9814 5e3d b068 b63d b0ba 953d
000003c0: 57a6 aebd 099e 2bbd fcad fb3c 9ced ab3d
000003d0: f3cb 9bbd f8cb 903d a036 9c3d ac02 703d
000003e0: 80d5 203c bf82 56bd bc98 173d b079 ab3b
000003f0: f4be 383d a041 6e3d a8bd 523c 2ae5 f4bc
-0.029950026 -0.021579906 0.05761324 -0.04845372 -0.047268268 0.050749987 -0.010201126 0.051850364
-0.053505987 0.012791082 -0.017742507 0.07132763 0.040479735 0.082321435 0.0637508 0.030212015
-0.078804106 -0.013671838 -0.0026816279 -0.065021515 0.060995474 0.074198425 -0.02579265 0.019456103
0.029487953 -0.034134492 0.030637965 0.055740997 -0.045078635 0.023565859 -0.08349257 -0.03098441
0.024933606 -0.062046617 0.07067086 0.08842616 0.059452325 0.02589567 -0.07149005 0.044848487
0.080162704 0.042936653 0.040579617 -0.030893035 0.016118482 -0.0885621 -0.089975744 0.030716859
0.006962776 0.08576621 0.057781965 -0.07939282 -0.061209016 0.06496933 -0.040583026 -0.0230605
-0.069028184 -0.06929958 -0.0030495673 -0.0648049 -0.054720644 -0.08651601 -0.06443478 0.056708425
0.076476425 0.01574716 -0.06552601 0.008987181 0.024305485 0.040434018 0.05845216 -0.048822023
0.0068314373 0.044271126 0.0045096427 -0.05554747 0.087706834 -0.07980093 -0.054272324 -0.06788443
0.06628372 -0.050386406 0.037060603 0.046156824 -0.040743966 0.0083727315 -0.072822854 -0.03287823
0.04053901 -0.038364552 -0.033532023 0.04972644 0.052285224 -0.019901082 0.05537875 0.0530504
0.07804841 0.036496744 -0.07530697 -0.0781901 -0.082705885 -0.010364741 0.08180155 0.026520513
-0.05540811 0.034156196 -0.007885173 0.0072269887 0.052728444 -0.0244639 -0.03807956 0.013532497
0.048882276 0.053491607 -0.03992165 0.05320494 -0.05704117 0.024798512 -0.06802685 -0.057388585
-0.06761722 -0.02027721 0.027831137 -0.046773106 0.00587786 0.058596626 -0.06979778 0.019717962
-0.002639614 0.032056257 -0.08551424 -0.04229662 0.056651697 -0.06447117 0.0604084 0.02987247
0.061869875 0.053831115 -0.051131036 -0.080665335 0.0068069026 -0.02285865 -0.041509893 0.018315464
0.07017042 0.013202995 -0.06412573 0.002775982 -0.08192282 -0.051646415 -0.040035333 -0.03910004
0.085520506 0.039993584 -0.05428556 0.051360756 0.017640874 -0.038555387 -0.044534948 0.06534381
0.032159753 0.071170956 0.047149688 0.030559756 0.07647917 -0.019784614 -0.020459339 0.04910527
0.028945282 0.076450706 -0.014863856 0.062197313 -0.049562406 -0.0038771406 -0.08507383 0.02308438
-0.08338457 0.08353594 0.035547465 -0.04143783 0.06819624 -0.07287662 0.061868384 0.089584425
-0.0841114 -0.015424296 -0.008822218 -0.024094455 0.0353449 0.06481488 0.035149872 -0.020867892
-0.076840974 -0.06701678 0.027567618 -0.0042338744 0.062417522 -0.0436407 -0.06888046 0.04043351
0.004214041 0.04055594 0.018914893 -0.04285257 0.011652149 0.050199986 -0.0064825043 0.05533667
0.052605987 0.025898166 -0.084458105 0.07084307 0.08899091 0.041922882 0.08191796 -0.08956864
-0.03174335 -0.017172702 -0.01705037 0.03524226 0.05902332 0.060424075 -0.07178343 0.071012765
-0.032179084 0.09005605 0.01811006 -0.022871606 -0.046998926 0.07317926 0.020163462 0.008883022
0.08122359 -0.06432454 0.0018193051 -0.048966102 0.031651936 0.05421886 0.08906686 0.073109984
-0.085278206 -0.04189876 0.03072261 0.0839493 -0.076072596 0.07070154 0.076276064 0.058596298
0.009816527 -0.052370783 0.037010893 0.005233012 0.045103982 0.058168054 0.0128626 -0.02989443

sequential_1/dense_4/MatMul f4 [15, 20]
00000000: d4ed 98be 72d1 a0be f4b2 9abe d40f ef3d
00000010: 7abe 66be 6ed5 423e 488e aebd 0183 ac3e
00000020: 00d3 88bd 3060 8c3d 0846 463e 6e75 ccbe
00000030: 48c5 43bd 207b 9f3d f150 b5be b80c 2fbe
00000040: d698 253e d9d0 9dbe 56ac 66be c010 3a3c
00000050: 0682 6a3e c018 483d 6bcd b4be d1e4 69be
00000060: 0214 b2be b07d 8fbe b5a5 913e 0e7f aebe
00000070: 2db2 8e3e 1082 d13c ab21 923e 00dd 9aba
00000080: 0000 f1bd 8dbf a0be 9063 4ebd 3c53 21be
00000090: 6d7e b13e e400 b3be 7198 c5be 38e9 a1bd
000000a0: 377c 923e 0f2e b7be 6ea6 65be a9d2 bbbe
000000b0: 4371 d0be 844b a9be bfa2 cdbe f8cd 203d
000000c0: 624b 793e cb5f 9c3e ef66 cf3d c6c2 4f3e
000000d0: 0ecd 313e 907b fdbd c061 bbbc 3b19 ac3e
000000e0: 5042 ae3d 88bd b9be ca9e 693e 8c18 cf3d
000000f0: ffd8 913e 7c61 d83d 4b7c 01be 535f a2be
00000100: 031f cf3d c21e 58be d21e c1be 5a47 7bbe
00000110: 14e6 ffbd de63 713e a90a dd3c 121e 1a3e
00000120: 311b 54be 003e a8bb 70eb 03bd 8038 1c3c
00000130: a81e 6bbd 8040 723d 4a43 b2be 5605 1c3e
00000140: 282b 03be c198 813e 71e6 233e a2ac 853c
00000150: 4f5c 9b3d 4cf5 c13d f79c 8c3e 5d8c ac3e
00000160: a0e7 dabc ba50 693e 6355 613e 0090 be39
00000170: 95f9 543e 8083 5b3c 8829 d9bd f1e7 6cbe
00000180: 7cf9 893d abd5 cebe 9812 e1bd f083 123d
00000190: 139b a23e d62c 413e cd47 92be 752d ba3e
000001a0: 1e9c 31be 12bd 25be 5df7 51be a66e c7be
000001b0: d432 853d a672 603e 1890 4a3e ae11 adbe
000001c0: 5a45 11be 388e 003d 9989 9c3e 8b7f cdbe
000001d0: 0a41 1d3e d62d a7be c3fa c93e 00a4 2a3c
000001e0: 283d 90be d719 a13e 3125 89bd be6c c6be
000001f0: b59f 82be f164 6bbe 3a65 353e 84d4 ccbe
00000200: 3d18 b03e 1a66 063e d941 ae3e e8d7 77bd
00000210: 4879 39be 0da6 9a3e b64b 353e b2b9 8abe
00000220: 98db 553d 1795 2c3d ce5b 623e 2ed4 3c3e
00000230: 99b3 60be 360f 85be ddc4 8d3e 0d08 383e
00000240: edf5 9c3e 78b7 403d 1892 c6bd 4f28 923e
00000250: a176 32be c465 e93d 98c0 23be 8cf4 82be
00000260: dba1 93be ee68 aebe 1a10 09be 0477 9b3d
00000270: 25a4 cd3e a4e7 7d3e 88c2 51bd 8431 9cbe
00000280: 80e0 13bb ba22 073e 3c10 d5bd 2c2c f53d
00000290: 6a1c cd3d e2df 263e 96a1 763e bc6a cfbc
000002a0: 2fae d33e 70e1 343d df00 a03e 550b b53e
000002b0: 1ad7 93be 5798 bf3e 7bad 9abe f9e4 9a3e
000002c0: a005 283d 58b1 e1bb 21b4 c5be 54a4 1bbe
000002d0: 6291 9dbe 84f7 35be 7c92 7dbe a4aa 8a3d
000002e0: 1a76 103e 9cac 17be 4e1d 783e 6383 b0be
000002f0: 663a 533e 7bc2 b13e f8de 993d ce4d a9be
00000300: 2ec8 c2be faeb 323e f216 463e dca3 923d
00000310: 0634 91be 747b c5bd 9159 c13e 1966 77be
00000320: e248 1cbe 0ad0 4e3e bdf2 a7be c86b ad3d
00000330: e015 a5bd 2004 aebc 9841 e1bd 4c84 a1bd
00000340: 0256 543e cecc c3be c08e 71bd 3ea3 c7be
00000350: 8a5b 7f3e 0471 bcbd 5781 ad3e e04c fe3c
00000360: 778c ad3e a02b 9ebe 34a7 b73d 32ee 583e
00000370: 5a8a 133e 591b 9ebe 4435 b43e 3991 0e3d
00000380: 7530 253e 6018 c3be ee44 54be 389b 9e3d
00000390: ea1c 063e bab1 a3be 5389 c7be f0b2 a6bd
000003a0: f19a 2dbd 82ac 143e a666 3c3e 1040 6c3d
000003b0: 4c92 81be 2c6f 7bbe 9342 4fbe 3cad a7bb
000003c0: c0ee 9fbb 005f 473c 6262 c2be 3879 04bd
000003d0: 28e3 933e eb33 b03e 201b 0e3c 6e98 d7bd
000003e0: f5bd 3dbe e219 643e 3796 8b3d da94 203e
000003f0: 9b0f 3abe 8c15 fa3d 100e b2bd 52f0 103e
-0.29868948 -0.31409794 -0.30214655 0.11672941 -0.22533599 0.1902673 -0.08523232 0.33693698
-0.0668087 0.06854284 0.19362652 -0.39933342 -0.047795564 0.07787156 -0.35413316 -0.17094696
0.16171584 -0.308234 -0.22526678 0.011356533 0.22901163 0.04885173 -0.3531297 -0.22841193
-0.3478089 -0.2802558 0.28446737 -0.3408131 0.27870312 0.025574714 0.28541312 -0.0011815131
-0.11767578 -0.31396142 -0.05038792 -0.15754408 0.34666768 -0.34961617 -0.38592866 -0.07905811
0.28610393 -0.35777327 -0.22426769 -0.36684158 -0.40711412 -0.33065426 -0.40163228 0.039258927
0.24345163 0.30541834 0.10127055 0.20289144 0.17363378 -0.12377083 -0.02287376 0.33613
0.08508742 -0.36277413 0.2281448 0.10112104 0.28485867 0.10565469 -0.1264507 -0.31713352
0.10113337 -0.21105483 -0.37718827 -0.24538937 -0.12495056 0.23573253 0.026982622 0.15050533
-0.20713498 -0.005134344 -0.032206953 0.009534955 -0.057402283 0.059143543 -0.34816962 0.1523641
-0.12809432 0.25311854 0.16005875 0.01631767 0.07585966 0.09470615 0.27463505 0.3370084
-0.026721776 0.22784701 0.22005229 0.00036346912 0.20798333 0.013398051 -0.106036246 -0.23135354
0.067370385 -0.4039739 -0.109898746 0.035770357 0.31758937 0.1886476 -0.28570405 0.36362806
-0.1734471 -0.16185406 -0.20504518 -0.38951606 0.06503835 0.21918735 0.1978153 -0.3380255
-0.14186612 0.03138563 0.3057373 -0.4013637 0.15356842 -0.32652158 0.39449129 0.010415077
-0.2817166 0.31465027 -0.06696547 -0.3875484 -0.25512472 -0.22987725 0.17714396 -0.40005887
0.34393492 0.13124886 0.34034613 -0.06050864 -0.18112671 0.30204812 0.17704663 -0.270948
0.052211374 0.04213437 0.22105333 0.18440315 -0.21943511 -0.25988168 0.27689257 0.17971821
0.30656376 0.04704997 -0.09695834 0.28546378 -0.17428066 0.113963634 -0.15991437 -0.255772
-0.28834423 -0.3406443 -0.13385049 0.0759106 0.40164295 0.24795395 -0.05121091 -0.30506527
-0.0022564232 0.13196841 -0.10403487 0.11971316 0.10015185 0.16296342 0.24085078 -0.02531945
0.4134383 0.044160306 0.31250665 0.35360208 -0.28875047 0.37420914 -0.3021048 0.30252817
0.04102099 -0.006887596 -0.3861399 -0.15199405 -0.3077498 -0.17770201 -0.2476291 0.06770828
0.14107552 -0.14811939 0.24229929 -0.3447524 0.20627746 0.3471869 0.07513231 -0.33067173
-0.3804335 0.1747283 0.1934469 0.0716016 -0.28360003 -0.096426874 0.37763646 -0.24160041
-0.15262178 0.20196548 -0.32802382 0.08467823 -0.08060813 -0.021242201 -0.10998839 -0.07886562
0.20735934 -0.3824219 -0.058974028 -0.3899173 0.24937263 -0.092012435 0.3388774 0.031042516
0.3389623 -0.30892658 0.08967438 0.21184614 0.14408246 -0.3088024 0.35196888 0.034806464
0.16131766 -0.38104534 -0.2072942 0.077444494 0.13096967 -0.31971532 -0.38971958 -0.08139598
-0.04238409 0.14518932 0.18398532 0.057678282 -0.25306928 -0.24554127 -0.2024024 -0.0051170867
-0.004880756 0.012168646 -0.37965685 -0.032342166 0.28884244 0.3441461 0.008673459 -0.105271205
-0.18529494 0.22275499 0.068157606 0.15681782 -0.18170016 0.12211141 -0.086940885 0.14154175

sequential_1/dense_5/MatMul f4 [2, 15]
00000000: 2f0d 03bf d69d 93be 7557 953e 2961 ff3e
00000010: c929 bcbd 21ba 3abd 805e 87be 299c 03bf
00000020: cd41 94be c138 6dbe de76 163f 9d6c 01bf
00000030: e55c bdbe 8b8b d9be 071c d8be eaab e9bd
00000040: 8e7b f4bd 5b51 ac3e 8825 2c3e f435 913e
00000050: 146b cbbe 7248 843d 7276 453e 91b6 2e3e
00000060: 73a6 d43d 40c7 2d3e 3e41 813e b4b6 ba3e
00000070: 19ef 1e3e 0d65 b83e
-0.5119199 -0.28831357 0.29168287 0.49878815 -0.091876574 -0.045587663 -0.26439285 -0.51410156
-0.28956452 -0.23166181 0.58775127 -0.50556356 -0.36984935 -0.42489275 -0.42208883 -0.11409743
-0.11937629 0.3365582 0.16811192 0.28361475 -0.39730132 0.0645913 0.19283465 0.17061831
0.1038331 0.16970539 0.25245088 0.36467516 0.15520896 0.36014596
